…
I0301 19:42:38.869312    49 net.cpp:294] The NetState phase (0) differed from the phase (1) specified by a rule in layer accuracy/top5
I0301 19:42:38.869544    49 net.cpp:51] Initializing net from parameters: 
name: "VGG_ILSVRC_16_layers"
state {
  phase: TRAIN
  level: 0
  stage: ""
}
layer {
  name: "data"
  type: "Data"
  top: "data"
  top: "label"
  include {
    phase: TRAIN
  }
  transform_param {
    mirror: true
    crop_size: 224
    mean_value: 104
    mean_value: 117
    mean_value: 123
  }
  data_param {
    source: "imagenet_train_0.5"
    batch_size: 75
    backend: LMDB
  }
}
layer {
  name: "conv1_1"
  type: "Convolution"
  bottom: "data"
  top: "conv1_1"
  param {
    lr_mult: 0
  }
  param {
    lr_mult: 0
  }
  convolution_param {
    num_output: 64
    pad: 1
    kernel_size: 3
  }
}
layer {
  name: "relu1_1"
  type: "ReLU"
  bottom: "conv1_1"
  top: "conv1_1"
}
layer {
  name: "conv1_2"
  type: "Convolution"
  bottom: "conv1_1"
  top: "conv1_2"
  param {
    lr_mult: 0
  }
  param {
    lr_mult: 0
  }
  convolution_param {
    num_output: 64
    pad: 1
    kernel_size: 3
  }
}
layer {
  name: "relu1_2"
  type: "ReLU"
  bottom: "conv1_2"
  top: "conv1_2"
}
layer {
  name: "pool1"
  type: "Pooling"
  bottom: "conv1_2"
  top: "pool1"
  pooling_param {
    pool: MAX
    kernel_size: 2
    stride: 2
  }
}
layer {
  name: "conv2_1"
  type: "Convolution"
  bottom: "pool1"
  top: "conv2_1"
  param {
    lr_mult: 0
  }
  param {
    lr_mult: 0
  }
  convolution_param {
    num_output: 128
    pad: 1
    kernel_size: 3
  }
}
layer {
  name: "relu2_1"
  type: "ReLU"
  bottom: "conv2_1"
  top: "conv2_1"
}
layer {
  name: "conv2_2"
  type: "Convolution"
  bottom: "conv2_1"
  top: "conv2_2"
  param {
    lr_mult: 0
  }
  param {
    lr_mult: 0
  }
  convolution_param {
    num_output: 128
    pad: 1
    kernel_size: 3
  }
}
layer {
  name: "relu2_2"
  type: "ReLU"
  bottom: "conv2_2"
  top: "conv2_2"
}
layer {
  name: "pool2"
  type: "Pooling"
  bottom: "conv2_2"
  top: "pool2"
  pooling_param {
    pool: MAX
    kernel_size: 2
    stride: 2
  }
}
layer {
  name: "conv3_1"
  type: "Convolution"
  bottom: "pool2"
  top: "conv3_1"
  param {
    lr_mult: 0
  }
  param {
    lr_mult: 0
  }
  convolution_param {
    num_output: 256
    pad: 1
    kernel_size: 3
  }
}
layer {
  name: "relu3_1"
  type: "ReLU"
  bottom: "conv3_1"
  top: "conv3_1"
}
layer {
  name: "conv3_2"
  type: "Convolution"
  bottom: "conv3_1"
  top: "conv3_2"
  param {
    lr_mult: 0
  }
  param {
    lr_mult: 0
  }
  convolution_param {
    num_output: 256
    pad: 1
    kernel_size: 3
  }
}
layer {
  name: "relu3_2"
  type: "ReLU"
  bottom: "conv3_2"
  top: "conv3_2"
}
layer {
  name: "conv3_3"
  type: "Convolution"
  bottom: "conv3_2"
  top: "conv3_3"
  param {
    lr_mult: 0
  }
  param {
    lr_mult: 0
  }
  convolution_param {
    num_output: 256
    pad: 1
    kernel_size: 3
  }
}
layer {
  name: "relu3_3"
  type: "ReLU"
  bottom: "conv3_3"
  top: "conv3_3"
}
layer {
  name: "pool3"
  type: "Pooling"
  bottom: "conv3_3"
  top: "pool3"
  pooling_param {
    pool: MAX
    kernel_size: 2
    stride: 2
  }
}
layer {
  name: "conv4_1"
  type: "Convolution"
  bottom: "pool3"
  top: "conv4_1"
  param {
    lr_mult: 0
  }
  param {
    lr_mult: 0
  }
  convolution_param {
    num_output: 512
    pad: 1
    kernel_size: 3
  }
}
layer {
  name: "relu4_1"
  type: "ReLU"
  bottom: "conv4_1"
  top: "conv4_1"
}
layer {
  name: "conv4_2"
  type: "Convolution"
  bottom: "conv4_1"
  top: "conv4_2"
  param {
    lr_mult: 0
  }
  param {
    lr_mult: 0
  }
  convolution_param {
    num_output: 512
    pad: 1
    kernel_size: 3
  }
}
layer {
  name: "relu4_2"
  type: "ReLU"
  bottom: "conv4_2"
  top: "conv4_2"
}
layer {
  name: "conv4_3"
  type: "Convolution"
  bottom: "conv4_2"
  top: "conv4_3"
  param {
    lr_mult: 0
  }
  param {
    lr_mult: 0
  }
  convolution_param {
    num_output: 512
    pad: 1
    kernel_size: 3
  }
}
layer {
  name: "relu4_3"
  type: "ReLU"
  bottom: "conv4_3"
  top: "conv4_3"
}
layer {
  name: "pool4"
  type: "Pooling"
  bottom: "conv4_3"
  top: "pool4"
  pooling_param {
    pool: MAX
    kernel_size: 2
    stride: 2
  }
}
layer {
  name: "conv5_1"
  type: "Convolution"
  bottom: "pool4"
  top: "conv5_1"
  param {
    lr_mult: 0
  }
  param {
    lr_mult: 0
  }
  convolution_param {
    num_output: 512
    pad: 1
    kernel_size: 3
  }
}
layer {
  name: "relu5_1"
  type: "ReLU"
  bottom: "conv5_1"
  top: "conv5_1"
}
layer {
  name: "conv5_2"
  type: "Convolution"
  bottom: "conv5_1"
  top: "conv5_2"
  param {
    lr_mult: 0
  }
  param {
    lr_mult: 0
  }
  convolution_param {
    num_output: 512
    pad: 1
    kernel_size: 3
  }
}
layer {
  name: "relu5_2"
  type: "ReLU"
  bottom: "conv5_2"
  top: "conv5_2"
}
layer {
  name: "conv5_3"
  type: "Convolution"
  bottom: "conv5_2"
  top: "conv5_3"
  param {
    lr_mult: 0
  }
  param {
    lr_mult: 0
  }
  convolution_param {
    num_output: 512
    pad: 1
    kernel_size: 3
  }
}
layer {
  name: "relu5_3"
  type: "ReLU"
  bottom: "conv5_3"
  top: "conv5_3"
}
layer {
  name: "pool5"
  type: "Pooling"
  bottom: "conv5_3"
  top: "pool5"
  pooling_param {
    pool: MAX
    kernel_size: 2
    stride: 2
  }
}
layer {
  name: "fc6"
  type: "InnerProduct"
  bottom: "pool5"
  top: "fc6"
  param {
    lr_mult: 0
  }
  param {
    lr_mult: 0
  }
  inner_product_param {
    num_output: 4096
  }
}
layer {
  name: "relu6"
  type: "ReLU"
  bottom: "fc6"
  top: "fc6"
}
layer {
  name: "drop6"
  type: "Dropout"
  bottom: "fc6"
  top: "fc6"
  dropout_param {
    dropout_ratio: 0.5
  }
}
layer {
  name: "fc7"
  type: "InnerProduct"
  bottom: "fc6"
  top: "fc7"
  param {
    lr_mult: 0
  }
  param {
    lr_mult: 0
  }
  inner_product_param {
    num_output: 4096
  }
}
layer {
  name: "relu7"
  type: "ReLU"
  bottom: "fc7"
  top: "fc7"
}
layer {
  name: "drop7"
  type: "Dropout"
  bottom: "fc7"
  top: "fc7"
  dropout_param {
    dropout_ratio: 0.5
  }
}
layer {
  name: "fc8"
  type: "InnerProduct"
  bottom: "fc7"
  top: "fc8"
  param {
    lr_mult: 0
  }
  param {
    lr_mult: 0
  }
  inner_product_param {
    num_output: 1000
  }
}
layer {
  name: "loss"
  type: "SoftmaxWithLoss"
  bottom: "fc8"
  bottom: "label"
  top: "loss/loss"
}
I0301 19:42:38.869729    49 layer_factory.hpp:77] Creating layer data
I0301 19:42:42.708917    49 db_lmdb.cpp:35] Opened lmdb imagenet_train_0.5
I0301 19:42:47.835103    49 net.cpp:84] Creating Layer data
I0301 19:42:47.835147    49 net.cpp:380] data -> data
I0301 19:42:47.835186    49 net.cpp:380] data -> label
I0301 19:42:47.837715    49 data_layer.cpp:46] output data size: 75,3,224,224
I0301 19:42:47.968708    49 net.cpp:122] Setting up data
I0301 19:42:47.968755    49 net.cpp:129] Top shape: 75 3 224 224 (11289600)
I0301 19:42:47.968762    49 net.cpp:129] Top shape: 75 (75)
I0301 19:42:47.968813    49 net.cpp:137] Memory required for data: 45158700
I0301 19:42:47.968834    49 layer_factory.hpp:77] Creating layer conv1_1
I0301 19:42:47.968870    49 net.cpp:84] Creating Layer conv1_1
I0301 19:42:47.968879    49 net.cpp:406] conv1_1 <- data
I0301 19:42:47.968907    49 net.cpp:380] conv1_1 -> conv1_1
I0301 19:42:52.473774    49 net.cpp:122] Setting up conv1_1
I0301 19:42:52.473819    49 net.cpp:129] Top shape: 75 64 224 224 (240844800)
I0301 19:42:52.473824    49 net.cpp:137] Memory required for data: 1008537900
I0301 19:42:52.473877    49 layer_factory.hpp:77] Creating layer relu1_1
I0301 19:42:52.473902    49 net.cpp:84] Creating Layer relu1_1
I0301 19:42:52.473907    49 net.cpp:406] relu1_1 <- conv1_1
I0301 19:42:52.473922    49 net.cpp:367] relu1_1 -> conv1_1 (in-place)
I0301 19:42:52.474599    49 net.cpp:122] Setting up relu1_1
I0301 19:42:52.474619    49 net.cpp:129] Top shape: 75 64 224 224 (240844800)
I0301 19:42:52.474624    49 net.cpp:137] Memory required for data: 1971917100
I0301 19:42:52.474629    49 layer_factory.hpp:77] Creating layer conv1_2
I0301 19:42:52.474647    49 net.cpp:84] Creating Layer conv1_2
I0301 19:42:52.474653    49 net.cpp:406] conv1_2 <- conv1_1
I0301 19:42:52.474663    49 net.cpp:380] conv1_2 -> conv1_2
I0301 19:42:52.477418    49 net.cpp:122] Setting up conv1_2
I0301 19:42:52.477438    49 net.cpp:129] Top shape: 75 64 224 224 (240844800)
I0301 19:42:52.477443    49 net.cpp:137] Memory required for data: 2935296300
I0301 19:42:52.477466    49 layer_factory.hpp:77] Creating layer relu1_2
I0301 19:42:52.477476    49 net.cpp:84] Creating Layer relu1_2
I0301 19:42:52.477481    49 net.cpp:406] relu1_2 <- conv1_2
I0301 19:42:52.477488    49 net.cpp:367] relu1_2 -> conv1_2 (in-place)
I0301 19:42:52.478121    49 net.cpp:122] Setting up relu1_2
I0301 19:42:52.478137    49 net.cpp:129] Top shape: 75 64 224 224 (240844800)
I0301 19:42:52.478142    49 net.cpp:137] Memory required for data: 3898675500
I0301 19:42:52.478147    49 layer_factory.hpp:77] Creating layer pool1
I0301 19:42:52.478157    49 net.cpp:84] Creating Layer pool1
I0301 19:42:52.478162    49 net.cpp:406] pool1 <- conv1_2
I0301 19:42:52.478169    49 net.cpp:380] pool1 -> pool1
I0301 19:42:52.478237    49 net.cpp:122] Setting up pool1
I0301 19:42:52.478246    49 net.cpp:129] Top shape: 75 64 112 112 (60211200)
I0301 19:42:52.478250    49 net.cpp:137] Memory required for data: 4139520300
I0301 19:42:52.478255    49 layer_factory.hpp:77] Creating layer conv2_1
I0301 19:42:52.478266    49 net.cpp:84] Creating Layer conv2_1
I0301 19:42:52.478271    49 net.cpp:406] conv2_1 <- pool1
I0301 19:42:52.478277    49 net.cpp:380] conv2_1 -> conv2_1
I0301 19:42:52.483916    49 net.cpp:122] Setting up conv2_1
I0301 19:42:52.483939    49 net.cpp:129] Top shape: 75 128 112 112 (120422400)
I0301 19:42:52.483944    49 net.cpp:137] Memory required for data: 4621209900
I0301 19:42:52.483958    49 layer_factory.hpp:77] Creating layer relu2_1
I0301 19:42:52.483965    49 net.cpp:84] Creating Layer relu2_1
I0301 19:42:52.483970    49 net.cpp:406] relu2_1 <- conv2_1
I0301 19:42:52.483978    49 net.cpp:367] relu2_1 -> conv2_1 (in-place)
I0301 19:42:52.485074    49 net.cpp:122] Setting up relu2_1
I0301 19:42:52.485092    49 net.cpp:129] Top shape: 75 128 112 112 (120422400)
I0301 19:42:52.485097    49 net.cpp:137] Memory required for data: 5102899500
I0301 19:42:52.485110    49 layer_factory.hpp:77] Creating layer conv2_2
I0301 19:42:52.485124    49 net.cpp:84] Creating Layer conv2_2
I0301 19:42:52.485129    49 net.cpp:406] conv2_2 <- conv2_1
I0301 19:42:52.485141    49 net.cpp:380] conv2_2 -> conv2_2
I0301 19:42:52.488310    49 net.cpp:122] Setting up conv2_2
I0301 19:42:52.488329    49 net.cpp:129] Top shape: 75 128 112 112 (120422400)
I0301 19:42:52.488334    49 net.cpp:137] Memory required for data: 5584589100
I0301 19:42:52.488344    49 layer_factory.hpp:77] Creating layer relu2_2
I0301 19:42:52.488353    49 net.cpp:84] Creating Layer relu2_2
I0301 19:42:52.488358    49 net.cpp:406] relu2_2 <- conv2_2
I0301 19:42:52.488363    49 net.cpp:367] relu2_2 -> conv2_2 (in-place)
I0301 19:42:52.489135    49 net.cpp:122] Setting up relu2_2
I0301 19:42:52.489151    49 net.cpp:129] Top shape: 75 128 112 112 (120422400)
I0301 19:42:52.489156    49 net.cpp:137] Memory required for data: 6066278700
I0301 19:42:52.489159    49 layer_factory.hpp:77] Creating layer pool2
I0301 19:42:52.489171    49 net.cpp:84] Creating Layer pool2
I0301 19:42:52.489174    49 net.cpp:406] pool2 <- conv2_2
I0301 19:42:52.489181    49 net.cpp:380] pool2 -> pool2
I0301 19:42:52.489243    49 net.cpp:122] Setting up pool2
I0301 19:42:52.489251    49 net.cpp:129] Top shape: 75 128 56 56 (30105600)
I0301 19:42:52.489255    49 net.cpp:137] Memory required for data: 6186701100
I0301 19:42:52.489259    49 layer_factory.hpp:77] Creating layer conv3_1
I0301 19:42:52.489279    49 net.cpp:84] Creating Layer conv3_1
I0301 19:42:52.489285    49 net.cpp:406] conv3_1 <- pool2
I0301 19:42:52.489291    49 net.cpp:380] conv3_1 -> conv3_1
I0301 19:42:52.492535    49 net.cpp:122] Setting up conv3_1
I0301 19:42:52.492555    49 net.cpp:129] Top shape: 75 256 56 56 (60211200)
I0301 19:42:52.492561    49 net.cpp:137] Memory required for data: 6427545900
I0301 19:42:52.492576    49 layer_factory.hpp:77] Creating layer relu3_1
I0301 19:42:52.492584    49 net.cpp:84] Creating Layer relu3_1
I0301 19:42:52.492588    49 net.cpp:406] relu3_1 <- conv3_1
I0301 19:42:52.492596    49 net.cpp:367] relu3_1 -> conv3_1 (in-place)
I0301 19:42:52.493365    49 net.cpp:122] Setting up relu3_1
I0301 19:42:52.493381    49 net.cpp:129] Top shape: 75 256 56 56 (60211200)
I0301 19:42:52.493384    49 net.cpp:137] Memory required for data: 6668390700
I0301 19:42:52.493389    49 layer_factory.hpp:77] Creating layer conv3_2
I0301 19:42:52.493400    49 net.cpp:84] Creating Layer conv3_2
I0301 19:42:52.493405    49 net.cpp:406] conv3_2 <- conv3_1
I0301 19:42:52.493415    49 net.cpp:380] conv3_2 -> conv3_2
I0301 19:42:52.498574    49 net.cpp:122] Setting up conv3_2
I0301 19:42:52.498594    49 net.cpp:129] Top shape: 75 256 56 56 (60211200)
I0301 19:42:52.498597    49 net.cpp:137] Memory required for data: 6909235500
I0301 19:42:52.498607    49 layer_factory.hpp:77] Creating layer relu3_2
I0301 19:42:52.498615    49 net.cpp:84] Creating Layer relu3_2
I0301 19:42:52.498620    49 net.cpp:406] relu3_2 <- conv3_2
I0301 19:42:52.498630    49 net.cpp:367] relu3_2 -> conv3_2 (in-place)
I0301 19:42:52.499727    49 net.cpp:122] Setting up relu3_2
I0301 19:42:52.499747    49 net.cpp:129] Top shape: 75 256 56 56 (60211200)
I0301 19:42:52.499752    49 net.cpp:137] Memory required for data: 7150080300
I0301 19:42:52.499756    49 layer_factory.hpp:77] Creating layer conv3_3
I0301 19:42:52.499778    49 net.cpp:84] Creating Layer conv3_3
I0301 19:42:52.499785    49 net.cpp:406] conv3_3 <- conv3_2
I0301 19:42:52.499794    49 net.cpp:380] conv3_3 -> conv3_3
I0301 19:42:52.505297    49 net.cpp:122] Setting up conv3_3
I0301 19:42:52.505317    49 net.cpp:129] Top shape: 75 256 56 56 (60211200)
I0301 19:42:52.505322    49 net.cpp:137] Memory required for data: 7390925100
I0301 19:42:52.505332    49 layer_factory.hpp:77] Creating layer relu3_3
I0301 19:42:52.505343    49 net.cpp:84] Creating Layer relu3_3
I0301 19:42:52.505348    49 net.cpp:406] relu3_3 <- conv3_3
I0301 19:42:52.505357    49 net.cpp:367] relu3_3 -> conv3_3 (in-place)
I0301 19:42:52.506136    49 net.cpp:122] Setting up relu3_3
I0301 19:42:52.506153    49 net.cpp:129] Top shape: 75 256 56 56 (60211200)
I0301 19:42:52.506157    49 net.cpp:137] Memory required for data: 7631769900
I0301 19:42:52.506162    49 layer_factory.hpp:77] Creating layer pool3
I0301 19:42:52.506172    49 net.cpp:84] Creating Layer pool3
I0301 19:42:52.506176    49 net.cpp:406] pool3 <- conv3_3
I0301 19:42:52.506183    49 net.cpp:380] pool3 -> pool3
I0301 19:42:52.506250    49 net.cpp:122] Setting up pool3
I0301 19:42:52.506261    49 net.cpp:129] Top shape: 75 256 28 28 (15052800)
I0301 19:42:52.506265    49 net.cpp:137] Memory required for data: 7691981100
I0301 19:42:52.506269    49 layer_factory.hpp:77] Creating layer conv4_1
I0301 19:42:52.506297    49 net.cpp:84] Creating Layer conv4_1
I0301 19:42:52.506302    49 net.cpp:406] conv4_1 <- pool3
I0301 19:42:52.506311    49 net.cpp:380] conv4_1 -> conv4_1
I0301 19:42:52.513854    49 net.cpp:122] Setting up conv4_1
I0301 19:42:52.513876    49 net.cpp:129] Top shape: 75 512 28 28 (30105600)
I0301 19:42:52.513880    49 net.cpp:137] Memory required for data: 7812403500
I0301 19:42:52.513898    49 layer_factory.hpp:77] Creating layer relu4_1
I0301 19:42:52.513907    49 net.cpp:84] Creating Layer relu4_1
I0301 19:42:52.513912    49 net.cpp:406] relu4_1 <- conv4_1
I0301 19:42:52.513921    49 net.cpp:367] relu4_1 -> conv4_1 (in-place)
I0301 19:42:52.514668    49 net.cpp:122] Setting up relu4_1
I0301 19:42:52.514684    49 net.cpp:129] Top shape: 75 512 28 28 (30105600)
I0301 19:42:52.514690    49 net.cpp:137] Memory required for data: 7932825900
I0301 19:42:52.514694    49 layer_factory.hpp:77] Creating layer conv4_2
I0301 19:42:52.514706    49 net.cpp:84] Creating Layer conv4_2
I0301 19:42:52.514711    49 net.cpp:406] conv4_2 <- conv4_1
I0301 19:42:52.514720    49 net.cpp:380] conv4_2 -> conv4_2
I0301 19:42:52.523294    49 net.cpp:122] Setting up conv4_2
I0301 19:42:52.523319    49 net.cpp:129] Top shape: 75 512 28 28 (30105600)
I0301 19:42:52.523324    49 net.cpp:137] Memory required for data: 8053248300
I0301 19:42:52.523340    49 layer_factory.hpp:77] Creating layer relu4_2
I0301 19:42:52.523349    49 net.cpp:84] Creating Layer relu4_2
I0301 19:42:52.523353    49 net.cpp:406] relu4_2 <- conv4_2
I0301 19:42:52.523362    49 net.cpp:367] relu4_2 -> conv4_2 (in-place)
I0301 19:42:52.524099    49 net.cpp:122] Setting up relu4_2
I0301 19:42:52.524116    49 net.cpp:129] Top shape: 75 512 28 28 (30105600)
I0301 19:42:52.524119    49 net.cpp:137] Memory required for data: 8173670700
I0301 19:42:52.524124    49 layer_factory.hpp:77] Creating layer conv4_3
I0301 19:42:52.524137    49 net.cpp:84] Creating Layer conv4_3
I0301 19:42:52.524142    49 net.cpp:406] conv4_3 <- conv4_2
I0301 19:42:52.524149    49 net.cpp:380] conv4_3 -> conv4_3
I0301 19:42:52.532773    49 net.cpp:122] Setting up conv4_3
I0301 19:42:52.532799    49 net.cpp:129] Top shape: 75 512 28 28 (30105600)
I0301 19:42:52.532804    49 net.cpp:137] Memory required for data: 8294093100
I0301 19:42:52.532825    49 layer_factory.hpp:77] Creating layer relu4_3
I0301 19:42:52.532835    49 net.cpp:84] Creating Layer relu4_3
I0301 19:42:52.532840    49 net.cpp:406] relu4_3 <- conv4_3
I0301 19:42:52.532850    49 net.cpp:367] relu4_3 -> conv4_3 (in-place)
I0301 19:42:52.533962    49 net.cpp:122] Setting up relu4_3
I0301 19:42:52.533980    49 net.cpp:129] Top shape: 75 512 28 28 (30105600)
I0301 19:42:52.533987    49 net.cpp:137] Memory required for data: 8414515500
I0301 19:42:52.533991    49 layer_factory.hpp:77] Creating layer pool4
I0301 19:42:52.533999    49 net.cpp:84] Creating Layer pool4
I0301 19:42:52.534004    49 net.cpp:406] pool4 <- conv4_3
I0301 19:42:52.534013    49 net.cpp:380] pool4 -> pool4
I0301 19:42:52.534080    49 net.cpp:122] Setting up pool4
I0301 19:42:52.534088    49 net.cpp:129] Top shape: 75 512 14 14 (7526400)
I0301 19:42:52.534092    49 net.cpp:137] Memory required for data: 8444621100
I0301 19:42:52.534097    49 layer_factory.hpp:77] Creating layer conv5_1
I0301 19:42:52.534106    49 net.cpp:84] Creating Layer conv5_1
I0301 19:42:52.534111    49 net.cpp:406] conv5_1 <- pool4
I0301 19:42:52.534117    49 net.cpp:380] conv5_1 -> conv5_1
I0301 19:42:52.542783    49 net.cpp:122] Setting up conv5_1
I0301 19:42:52.542806    49 net.cpp:129] Top shape: 75 512 14 14 (7526400)
I0301 19:42:52.542810    49 net.cpp:137] Memory required for data: 8474726700
I0301 19:42:52.542821    49 layer_factory.hpp:77] Creating layer relu5_1
I0301 19:42:52.542831    49 net.cpp:84] Creating Layer relu5_1
I0301 19:42:52.542836    49 net.cpp:406] relu5_1 <- conv5_1
I0301 19:42:52.542846    49 net.cpp:367] relu5_1 -> conv5_1 (in-place)
I0301 19:42:52.543586    49 net.cpp:122] Setting up relu5_1
I0301 19:42:52.543602    49 net.cpp:129] Top shape: 75 512 14 14 (7526400)
I0301 19:42:52.543627    49 net.cpp:137] Memory required for data: 8504832300
I0301 19:42:52.543640    49 layer_factory.hpp:77] Creating layer conv5_2
I0301 19:42:52.543654    49 net.cpp:84] Creating Layer conv5_2
I0301 19:42:52.543659    49 net.cpp:406] conv5_2 <- conv5_1
I0301 19:42:52.543668    49 net.cpp:380] conv5_2 -> conv5_2
I0301 19:42:52.552295    49 net.cpp:122] Setting up conv5_2
I0301 19:42:52.552319    49 net.cpp:129] Top shape: 75 512 14 14 (7526400)
I0301 19:42:52.552325    49 net.cpp:137] Memory required for data: 8534937900
I0301 19:42:52.552335    49 layer_factory.hpp:77] Creating layer relu5_2
I0301 19:42:52.552345    49 net.cpp:84] Creating Layer relu5_2
I0301 19:42:52.552351    49 net.cpp:406] relu5_2 <- conv5_2
I0301 19:42:52.552359    49 net.cpp:367] relu5_2 -> conv5_2 (in-place)
I0301 19:42:52.553087    49 net.cpp:122] Setting up relu5_2
I0301 19:42:52.553102    49 net.cpp:129] Top shape: 75 512 14 14 (7526400)
I0301 19:42:52.553107    49 net.cpp:137] Memory required for data: 8565043500
I0301 19:42:52.553112    49 layer_factory.hpp:77] Creating layer conv5_3
I0301 19:42:52.553124    49 net.cpp:84] Creating Layer conv5_3
I0301 19:42:52.553128    49 net.cpp:406] conv5_3 <- conv5_2
I0301 19:42:52.553138    49 net.cpp:380] conv5_3 -> conv5_3
I0301 19:42:52.561794    49 net.cpp:122] Setting up conv5_3
I0301 19:42:52.561816    49 net.cpp:129] Top shape: 75 512 14 14 (7526400)
I0301 19:42:52.561820    49 net.cpp:137] Memory required for data: 8595149100
I0301 19:42:52.561831    49 layer_factory.hpp:77] Creating layer relu5_3
I0301 19:42:52.561853    49 net.cpp:84] Creating Layer relu5_3
I0301 19:42:52.561858    49 net.cpp:406] relu5_3 <- conv5_3
I0301 19:42:52.561869    49 net.cpp:367] relu5_3 -> conv5_3 (in-place)
I0301 19:42:52.563175    49 net.cpp:122] Setting up relu5_3
I0301 19:42:52.563195    49 net.cpp:129] Top shape: 75 512 14 14 (7526400)
I0301 19:42:52.563200    49 net.cpp:137] Memory required for data: 8625254700
I0301 19:42:52.563205    49 layer_factory.hpp:77] Creating layer pool5
I0301 19:42:52.563213    49 net.cpp:84] Creating Layer pool5
I0301 19:42:52.563220    49 net.cpp:406] pool5 <- conv5_3
I0301 19:42:52.563230    49 net.cpp:380] pool5 -> pool5
I0301 19:42:52.563297    49 net.cpp:122] Setting up pool5
I0301 19:42:52.563307    49 net.cpp:129] Top shape: 75 512 7 7 (1881600)
I0301 19:42:52.563310    49 net.cpp:137] Memory required for data: 8632781100
I0301 19:42:52.563315    49 layer_factory.hpp:77] Creating layer fc6
I0301 19:42:52.563334    49 net.cpp:84] Creating Layer fc6
I0301 19:42:52.563339    49 net.cpp:406] fc6 <- pool5
I0301 19:42:52.563346    49 net.cpp:380] fc6 -> fc6
I0301 19:42:52.858713    49 net.cpp:122] Setting up fc6
I0301 19:42:52.858762    49 net.cpp:129] Top shape: 75 4096 (307200)
I0301 19:42:52.858767    49 net.cpp:137] Memory required for data: 8634009900
I0301 19:42:52.858784    49 layer_factory.hpp:77] Creating layer relu6
I0301 19:42:52.858798    49 net.cpp:84] Creating Layer relu6
I0301 19:42:52.858803    49 net.cpp:406] relu6 <- fc6
I0301 19:42:52.858813    49 net.cpp:367] relu6 -> fc6 (in-place)
I0301 19:42:52.859696    49 net.cpp:122] Setting up relu6
I0301 19:42:52.859712    49 net.cpp:129] Top shape: 75 4096 (307200)
I0301 19:42:52.859716    49 net.cpp:137] Memory required for data: 8635238700
I0301 19:42:52.859721    49 layer_factory.hpp:77] Creating layer drop6
I0301 19:42:52.859755    49 net.cpp:84] Creating Layer drop6
I0301 19:42:52.859760    49 net.cpp:406] drop6 <- fc6
I0301 19:42:52.859768    49 net.cpp:367] drop6 -> fc6 (in-place)
I0301 19:42:52.859812    49 net.cpp:122] Setting up drop6
I0301 19:42:52.859822    49 net.cpp:129] Top shape: 75 4096 (307200)
I0301 19:42:52.859824    49 net.cpp:137] Memory required for data: 8636467500
I0301 19:42:52.859829    49 layer_factory.hpp:77] Creating layer fc7
I0301 19:42:52.859840    49 net.cpp:84] Creating Layer fc7
I0301 19:42:52.859846    49 net.cpp:406] fc7 <- fc6
I0301 19:42:52.859854    49 net.cpp:380] fc7 -> fc7
I0301 19:42:52.908658    49 net.cpp:122] Setting up fc7
I0301 19:42:52.908740    49 net.cpp:129] Top shape: 75 4096 (307200)
I0301 19:42:52.908746    49 net.cpp:137] Memory required for data: 8637696300
I0301 19:42:52.908762    49 layer_factory.hpp:77] Creating layer relu7
I0301 19:42:52.908776    49 net.cpp:84] Creating Layer relu7
I0301 19:42:52.908780    49 net.cpp:406] relu7 <- fc7
I0301 19:42:52.908794    49 net.cpp:367] relu7 -> fc7 (in-place)
I0301 19:42:52.909668    49 net.cpp:122] Setting up relu7
I0301 19:42:52.909685    49 net.cpp:129] Top shape: 75 4096 (307200)
I0301 19:42:52.909689    49 net.cpp:137] Memory required for data: 8638925100
I0301 19:42:52.909695    49 layer_factory.hpp:77] Creating layer drop7
I0301 19:42:52.909703    49 net.cpp:84] Creating Layer drop7
I0301 19:42:52.909708    49 net.cpp:406] drop7 <- fc7
I0301 19:42:52.909716    49 net.cpp:367] drop7 -> fc7 (in-place)
I0301 19:42:52.909759    49 net.cpp:122] Setting up drop7
I0301 19:42:52.909770    49 net.cpp:129] Top shape: 75 4096 (307200)
I0301 19:42:52.909773    49 net.cpp:137] Memory required for data: 8640153900
I0301 19:42:52.909777    49 layer_factory.hpp:77] Creating layer fc8
I0301 19:42:52.909786    49 net.cpp:84] Creating Layer fc8
I0301 19:42:52.909790    49 net.cpp:406] fc8 <- fc7
I0301 19:42:52.909797    49 net.cpp:380] fc8 -> fc8
I0301 19:42:52.920382    49 net.cpp:122] Setting up fc8
I0301 19:42:52.920415    49 net.cpp:129] Top shape: 75 1000 (75000)
I0301 19:42:52.920419    49 net.cpp:137] Memory required for data: 8640453900
I0301 19:42:52.920431    49 layer_factory.hpp:77] Creating layer loss
I0301 19:42:52.920445    49 net.cpp:84] Creating Layer loss
I0301 19:42:52.920451    49 net.cpp:406] loss <- fc8
I0301 19:42:52.920459    49 net.cpp:406] loss <- label
I0301 19:42:52.920473    49 net.cpp:380] loss -> loss/loss
I0301 19:42:52.920487    49 layer_factory.hpp:77] Creating layer loss
…
I0301 19:42:52.925977    49 net.cpp:294] The NetState phase (1) differed from the phase (0) specified by a rule in layer data
I0301 19:42:52.926229    49 net.cpp:51] Initializing net from parameters: 
name: "VGG_ILSVRC_16_layers"
state {
  phase: TEST
}
layer {
  name: "data"
  type: "Data"
  top: "data"
  top: "label"
  include {
    phase: TEST
  }
  transform_param {
    mirror: false
    crop_size: 224
    mean_value: 104
    mean_value: 117
    mean_value: 123
  }
  data_param {
    source: "imagenet_lmdb_val0.5"
    batch_size: 20
    backend: LMDB
  }
}
layer {
  name: "conv1_1"
  type: "Convolution"
  bottom: "data"
  top: "conv1_1"
  param {
    lr_mult: 0
  }
  param {
    lr_mult: 0
  }
  convolution_param {
    num_output: 64
    pad: 1
    kernel_size: 3
  }
}
layer {
  name: "relu1_1"
  type: "ReLU"
  bottom: "conv1_1"
  top: "conv1_1"
}
layer {
  name: "conv1_2"
  type: "Convolution"
  bottom: "conv1_1"
  top: "conv1_2"
  param {
    lr_mult: 0
  }
  param {
    lr_mult: 0
  }
  convolution_param {
    num_output: 64
    pad: 1
    kernel_size: 3
  }
}
layer {
  name: "relu1_2"
  type: "ReLU"
  bottom: "conv1_2"
  top: "conv1_2"
}
layer {
  name: "pool1"
  type: "Pooling"
  bottom: "conv1_2"
  top: "pool1"
  pooling_param {
    pool: MAX
    kernel_size: 2
    stride: 2
  }
}
layer {
  name: "conv2_1"
  type: "Convolution"
  bottom: "pool1"
  top: "conv2_1"
  param {
    lr_mult: 0
  }
  param {
    lr_mult: 0
  }
  convolution_param {
    num_output: 128
    pad: 1
    kernel_size: 3
  }
}
layer {
  name: "relu2_1"
  type: "ReLU"
  bottom: "conv2_1"
  top: "conv2_1"
}
layer {
  name: "conv2_2"
  type: "Convolution"
  bottom: "conv2_1"
  top: "conv2_2"
  param {
    lr_mult: 0
  }
  param {
    lr_mult: 0
  }
  convolution_param {
    num_output: 128
    pad: 1
    kernel_size: 3
  }
}
layer {
  name: "relu2_2"
  type: "ReLU"
  bottom: "conv2_2"
  top: "conv2_2"
}
layer {
  name: "pool2"
  type: "Pooling"
  bottom: "conv2_2"
  top: "pool2"
  pooling_param {
    pool: MAX
    kernel_size: 2
    stride: 2
  }
}
layer {
  name: "conv3_1"
  type: "Convolution"
  bottom: "pool2"
  top: "conv3_1"
  param {
    lr_mult: 0
  }
  param {
    lr_mult: 0
  }
  convolution_param {
    num_output: 256
    pad: 1
    kernel_size: 3
  }
}
layer {
  name: "relu3_1"
  type: "ReLU"
  bottom: "conv3_1"
  top: "conv3_1"
}
layer {
  name: "conv3_2"
  type: "Convolution"
  bottom: "conv3_1"
  top: "conv3_2"
  param {
    lr_mult: 0
  }
  param {
    lr_mult: 0
  }
  convolution_param {
    num_output: 256
    pad: 1
    kernel_size: 3
  }
}
layer {
  name: "relu3_2"
  type: "ReLU"
  bottom: "conv3_2"
  top: "conv3_2"
}
layer {
  name: "conv3_3"
  type: "Convolution"
  bottom: "conv3_2"
  top: "conv3_3"
  param {
    lr_mult: 0
  }
  param {
    lr_mult: 0
  }
  convolution_param {
    num_output: 256
    pad: 1
    kernel_size: 3
  }
}
layer {
  name: "relu3_3"
  type: "ReLU"
  bottom: "conv3_3"
  top: "conv3_3"
}
layer {
  name: "pool3"
  type: "Pooling"
  bottom: "conv3_3"
  top: "pool3"
  pooling_param {
    pool: MAX
    kernel_size: 2
    stride: 2
  }
}
layer {
  name: "conv4_1"
  type: "Convolution"
  bottom: "pool3"
  top: "conv4_1"
  param {
    lr_mult: 0
  }
  param {
    lr_mult: 0
  }
  convolution_param {
    num_output: 512
    pad: 1
    kernel_size: 3
  }
}
layer {
  name: "relu4_1"
  type: "ReLU"
  bottom: "conv4_1"
  top: "conv4_1"
}
layer {
  name: "conv4_2"
  type: "Convolution"
  bottom: "conv4_1"
  top: "conv4_2"
  param {
    lr_mult: 0
  }
  param {
    lr_mult: 0
  }
  convolution_param {
    num_output: 512
    pad: 1
    kernel_size: 3
  }
}
layer {
  name: "relu4_2"
  type: "ReLU"
  bottom: "conv4_2"
  top: "conv4_2"
}
layer {
  name: "conv4_3"
  type: "Convolution"
  bottom: "conv4_2"
  top: "conv4_3"
  param {
    lr_mult: 0
  }
  param {
    lr_mult: 0
  }
  convolution_param {
    num_output: 512
    pad: 1
    kernel_size: 3
  }
}
layer {
  name: "relu4_3"
  type: "ReLU"
  bottom: "conv4_3"
  top: "conv4_3"
}
layer {
  name: "pool4"
  type: "Pooling"
  bottom: "conv4_3"
  top: "pool4"
  pooling_param {
    pool: MAX
    kernel_size: 2
    stride: 2
  }
}
layer {
  name: "conv5_1"
  type: "Convolution"
  bottom: "pool4"
  top: "conv5_1"
  param {
    lr_mult: 0
  }
  param {
    lr_mult: 0
  }
  convolution_param {
    num_output: 512
    pad: 1
    kernel_size: 3
  }
}
layer {
  name: "relu5_1"
  type: "ReLU"
  bottom: "conv5_1"
  top: "conv5_1"
}
layer {
  name: "conv5_2"
  type: "Convolution"
  bottom: "conv5_1"
  top: "conv5_2"
  param {
    lr_mult: 0
  }
  param {
    lr_mult: 0
  }
  convolution_param {
    num_output: 512
    pad: 1
    kernel_size: 3
  }
}
layer {
  name: "relu5_2"
  type: "ReLU"
  bottom: "conv5_2"
  top: "conv5_2"
}
layer {
  name: "conv5_3"
  type: "Convolution"
  bottom: "conv5_2"
  top: "conv5_3"
  param {
    lr_mult: 0
  }
  param {
    lr_mult: 0
  }
  convolution_param {
    num_output: 512
    pad: 1
    kernel_size: 3
  }
}
layer {
  name: "relu5_3"
  type: "ReLU"
  bottom: "conv5_3"
  top: "conv5_3"
}
layer {
  name: "pool5"
  type: "Pooling"
  bottom: "conv5_3"
  top: "pool5"
  pooling_param {
    pool: MAX
    kernel_size: 2
    stride: 2
  }
}
layer {
  name: "fc6"
  type: "InnerProduct"
  bottom: "pool5"
  top: "fc6"
  param {
    lr_mult: 0
  }
  param {
    lr_mult: 0
  }
  inner_product_param {
    num_output: 4096
  }
}
layer {
  name: "relu6"
  type: "ReLU"
  bottom: "fc6"
  top: "fc6"
}
layer {
  name: "drop6"
  type: "Dropout"
  bottom: "fc6"
  top: "fc6"
  dropout_param {
    dropout_ratio: 0.5
  }
}
layer {
  name: "fc7"
  type: "InnerProduct"
  bottom: "fc6"
  top: "fc7"
  param {
    lr_mult: 0
  }
  param {
    lr_mult: 0
  }
  inner_product_param {
    num_output: 4096
  }
}
layer {
  name: "relu7"
  type: "ReLU"
  bottom: "fc7"
  top: "fc7"
}
layer {
  name: "drop7"
  type: "Dropout"
  bottom: "fc7"
  top: "fc7"
  dropout_param {
    dropout_ratio: 0.5
  }
}
layer {
  name: "fc8"
  type: "InnerProduct"
  bottom: "fc7"
  top: "fc8"
  param {
    lr_mult: 0
  }
  param {
    lr_mult: 0
  }
  inner_product_param {
    num_output: 1000
  }
}
layer {
  name: "loss"
  type: "SoftmaxWithLoss"
  bottom: "fc8"
  bottom: "label"
  top: "loss/loss"
}
layer {
  name: "accuracy/top1"
  type: "Accuracy"
  bottom: "fc8"
  bottom: "label"
  top: "accuracy@1"
  include {
    phase: TEST
  }
  accuracy_param {
    top_k: 1
  }
}
layer {
  name: "accuracy/top5"
  type: "Accuracy"
  bottom: "fc8"
  bottom: "label"
  top: "accuracy@5"
  include {
    phase: TEST
  }
  accuracy_param {
    top_k: 5
  }
}
I0301 19:42:52.926476    49 layer_factory.hpp:77] Creating layer data
I0301 19:42:56.877113    49 db_lmdb.cpp:35] Opened lmdb imagenet_lmdb_val0.5
I0301 19:43:02.070366    49 net.cpp:84] Creating Layer data
I0301 19:43:02.070415    49 net.cpp:380] data -> data
I0301 19:43:02.070436    49 net.cpp:380] data -> label
I0301 19:43:02.071244    49 data_layer.cpp:46] output data size: 20,3,224,224
I0301 19:43:02.107064    49 net.cpp:122] Setting up data
I0301 19:43:02.107161    49 net.cpp:129] Top shape: 20 3 224 224 (3010560)
I0301 19:43:02.107177    49 net.cpp:129] Top shape: 20 (20)
I0301 19:43:02.107182    49 net.cpp:137] Memory required for data: 12042320
I0301 19:43:02.107197    49 layer_factory.hpp:77] Creating layer label_data_1_split
I0301 19:43:02.107221    49 net.cpp:84] Creating Layer label_data_1_split
I0301 19:43:02.107228    49 net.cpp:406] label_data_1_split <- label
I0301 19:43:02.107239    49 net.cpp:380] label_data_1_split -> label_data_1_split_0
I0301 19:43:02.107252    49 net.cpp:380] label_data_1_split -> label_data_1_split_1
I0301 19:43:02.107261    49 net.cpp:380] label_data_1_split -> label_data_1_split_2
I0301 19:43:02.107493    49 net.cpp:122] Setting up label_data_1_split
I0301 19:43:02.107507    49 net.cpp:129] Top shape: 20 (20)
I0301 19:43:02.107513    49 net.cpp:129] Top shape: 20 (20)
I0301 19:43:02.107518    49 net.cpp:129] Top shape: 20 (20)
I0301 19:43:02.107522    49 net.cpp:137] Memory required for data: 12042560
I0301 19:43:02.107527    49 layer_factory.hpp:77] Creating layer conv1_1
I0301 19:43:02.107547    49 net.cpp:84] Creating Layer conv1_1
I0301 19:43:02.107551    49 net.cpp:406] conv1_1 <- data
I0301 19:43:02.107558    49 net.cpp:380] conv1_1 -> conv1_1
I0301 19:43:02.112694    49 net.cpp:122] Setting up conv1_1
I0301 19:43:02.112715    49 net.cpp:129] Top shape: 20 64 224 224 (64225280)
I0301 19:43:02.112720    49 net.cpp:137] Memory required for data: 268943680
I0301 19:43:02.112737    49 layer_factory.hpp:77] Creating layer relu1_1
I0301 19:43:02.112751    49 net.cpp:84] Creating Layer relu1_1
I0301 19:43:02.112756    49 net.cpp:406] relu1_1 <- conv1_1
I0301 19:43:02.112763    49 net.cpp:367] relu1_1 -> conv1_1 (in-place)
I0301 19:43:02.113648    49 net.cpp:122] Setting up relu1_1
I0301 19:43:02.113665    49 net.cpp:129] Top shape: 20 64 224 224 (64225280)
I0301 19:43:02.113669    49 net.cpp:137] Memory required for data: 525844800
I0301 19:43:02.113675    49 layer_factory.hpp:77] Creating layer conv1_2
I0301 19:43:02.113689    49 net.cpp:84] Creating Layer conv1_2
I0301 19:43:02.113694    49 net.cpp:406] conv1_2 <- conv1_1
I0301 19:43:02.113705    49 net.cpp:380] conv1_2 -> conv1_2
I0301 19:43:02.117033    49 net.cpp:122] Setting up conv1_2
I0301 19:43:02.117058    49 net.cpp:129] Top shape: 20 64 224 224 (64225280)
I0301 19:43:02.117063    49 net.cpp:137] Memory required for data: 782745920
I0301 19:43:02.117079    49 layer_factory.hpp:77] Creating layer relu1_2
I0301 19:43:02.117087    49 net.cpp:84] Creating Layer relu1_2
I0301 19:43:02.117092    49 net.cpp:406] relu1_2 <- conv1_2
I0301 19:43:02.117102    49 net.cpp:367] relu1_2 -> conv1_2 (in-place)
I0301 19:43:02.117846    49 net.cpp:122] Setting up relu1_2
I0301 19:43:02.117863    49 net.cpp:129] Top shape: 20 64 224 224 (64225280)
I0301 19:43:02.117868    49 net.cpp:137] Memory required for data: 1039647040
I0301 19:43:02.117873    49 layer_factory.hpp:77] Creating layer pool1
I0301 19:43:02.117882    49 net.cpp:84] Creating Layer pool1
I0301 19:43:02.117887    49 net.cpp:406] pool1 <- conv1_2
I0301 19:43:02.117893    49 net.cpp:380] pool1 -> pool1
I0301 19:43:02.117965    49 net.cpp:122] Setting up pool1
I0301 19:43:02.117976    49 net.cpp:129] Top shape: 20 64 112 112 (16056320)
I0301 19:43:02.118012    49 net.cpp:137] Memory required for data: 1103872320
I0301 19:43:02.118017    49 layer_factory.hpp:77] Creating layer conv2_1
I0301 19:43:02.118031    49 net.cpp:84] Creating Layer conv2_1
I0301 19:43:02.118036    49 net.cpp:406] conv2_1 <- pool1
I0301 19:43:02.118046    49 net.cpp:380] conv2_1 -> conv2_1
I0301 19:43:02.122474    49 net.cpp:122] Setting up conv2_1
I0301 19:43:02.122498    49 net.cpp:129] Top shape: 20 128 112 112 (32112640)
I0301 19:43:02.122503    49 net.cpp:137] Memory required for data: 1232322880
I0301 19:43:02.122521    49 layer_factory.hpp:77] Creating layer relu2_1
I0301 19:43:02.122531    49 net.cpp:84] Creating Layer relu2_1
I0301 19:43:02.122537    49 net.cpp:406] relu2_1 <- conv2_1
I0301 19:43:02.122545    49 net.cpp:367] relu2_1 -> conv2_1 (in-place)
I0301 19:43:02.123296    49 net.cpp:122] Setting up relu2_1
I0301 19:43:02.123311    49 net.cpp:129] Top shape: 20 128 112 112 (32112640)
I0301 19:43:02.123317    49 net.cpp:137] Memory required for data: 1360773440
I0301 19:43:02.123322    49 layer_factory.hpp:77] Creating layer conv2_2
I0301 19:43:02.123334    49 net.cpp:84] Creating Layer conv2_2
I0301 19:43:02.123338    49 net.cpp:406] conv2_2 <- conv2_1
I0301 19:43:02.123350    49 net.cpp:380] conv2_2 -> conv2_2
I0301 19:43:02.126869    49 net.cpp:122] Setting up conv2_2
I0301 19:43:02.126894    49 net.cpp:129] Top shape: 20 128 112 112 (32112640)
I0301 19:43:02.126899    49 net.cpp:137] Memory required for data: 1489224000
I0301 19:43:02.126914    49 layer_factory.hpp:77] Creating layer relu2_2
I0301 19:43:02.126924    49 net.cpp:84] Creating Layer relu2_2
I0301 19:43:02.126929    49 net.cpp:406] relu2_2 <- conv2_2
I0301 19:43:02.126936    49 net.cpp:367] relu2_2 -> conv2_2 (in-place)
I0301 19:43:02.172026    49 net.cpp:122] Setting up relu2_2
I0301 19:43:02.172051    49 net.cpp:129] Top shape: 20 128 112 112 (32112640)
I0301 19:43:02.172055    49 net.cpp:137] Memory required for data: 1617674560
I0301 19:43:02.172061    49 layer_factory.hpp:77] Creating layer pool2
I0301 19:43:02.172075    49 net.cpp:84] Creating Layer pool2
I0301 19:43:02.172080    49 net.cpp:406] pool2 <- conv2_2
I0301 19:43:02.172088    49 net.cpp:380] pool2 -> pool2
I0301 19:43:02.172207    49 net.cpp:122] Setting up pool2
I0301 19:43:02.172221    49 net.cpp:129] Top shape: 20 128 56 56 (8028160)
I0301 19:43:02.172226    49 net.cpp:137] Memory required for data: 1649787200
I0301 19:43:02.172233    49 layer_factory.hpp:77] Creating layer conv3_1
I0301 19:43:02.172248    49 net.cpp:84] Creating Layer conv3_1
I0301 19:43:02.172255    49 net.cpp:406] conv3_1 <- pool2
I0301 19:43:02.172263    49 net.cpp:380] conv3_1 -> conv3_1
I0301 19:43:02.177479    49 net.cpp:122] Setting up conv3_1
I0301 19:43:02.177515    49 net.cpp:129] Top shape: 20 256 56 56 (16056320)
I0301 19:43:02.177520    49 net.cpp:137] Memory required for data: 1714012480
I0301 19:43:02.177541    49 layer_factory.hpp:77] Creating layer relu3_1
I0301 19:43:02.177553    49 net.cpp:84] Creating Layer relu3_1
I0301 19:43:02.177559    49 net.cpp:406] relu3_1 <- conv3_1
I0301 19:43:02.177568    49 net.cpp:367] relu3_1 -> conv3_1 (in-place)
I0301 19:43:02.178328    49 net.cpp:122] Setting up relu3_1
I0301 19:43:02.178351    49 net.cpp:129] Top shape: 20 256 56 56 (16056320)
I0301 19:43:02.178356    49 net.cpp:137] Memory required for data: 1778237760
I0301 19:43:02.178362    49 layer_factory.hpp:77] Creating layer conv3_2
I0301 19:43:02.178378    49 net.cpp:84] Creating Layer conv3_2
I0301 19:43:02.178382    49 net.cpp:406] conv3_2 <- conv3_1
I0301 19:43:02.178390    49 net.cpp:380] conv3_2 -> conv3_2
I0301 19:43:02.184571    49 net.cpp:122] Setting up conv3_2
I0301 19:43:02.184594    49 net.cpp:129] Top shape: 20 256 56 56 (16056320)
I0301 19:43:02.184598    49 net.cpp:137] Memory required for data: 1842463040
I0301 19:43:02.184610    49 layer_factory.hpp:77] Creating layer relu3_2
I0301 19:43:02.184623    49 net.cpp:84] Creating Layer relu3_2
I0301 19:43:02.184631    49 net.cpp:406] relu3_2 <- conv3_2
I0301 19:43:02.184660    49 net.cpp:367] relu3_2 -> conv3_2 (in-place)
I0301 19:43:02.185690    49 net.cpp:122] Setting up relu3_2
I0301 19:43:02.185711    49 net.cpp:129] Top shape: 20 256 56 56 (16056320)
I0301 19:43:02.185716    49 net.cpp:137] Memory required for data: 1906688320
I0301 19:43:02.185721    49 layer_factory.hpp:77] Creating layer conv3_3
I0301 19:43:02.185737    49 net.cpp:84] Creating Layer conv3_3
I0301 19:43:02.185744    49 net.cpp:406] conv3_3 <- conv3_2
I0301 19:43:02.185751    49 net.cpp:380] conv3_3 -> conv3_3
I0301 19:43:02.190874    49 net.cpp:122] Setting up conv3_3
I0301 19:43:02.190901    49 net.cpp:129] Top shape: 20 256 56 56 (16056320)
I0301 19:43:02.190907    49 net.cpp:137] Memory required for data: 1970913600
I0301 19:43:02.190919    49 layer_factory.hpp:77] Creating layer relu3_3
I0301 19:43:02.190929    49 net.cpp:84] Creating Layer relu3_3
I0301 19:43:02.190934    49 net.cpp:406] relu3_3 <- conv3_3
I0301 19:43:02.190946    49 net.cpp:367] relu3_3 -> conv3_3 (in-place)
I0301 19:43:02.192117    49 net.cpp:122] Setting up relu3_3
I0301 19:43:02.192136    49 net.cpp:129] Top shape: 20 256 56 56 (16056320)
I0301 19:43:02.192140    49 net.cpp:137] Memory required for data: 2035138880
I0301 19:43:02.192147    49 layer_factory.hpp:77] Creating layer pool3
I0301 19:43:02.192155    49 net.cpp:84] Creating Layer pool3
I0301 19:43:02.192160    49 net.cpp:406] pool3 <- conv3_3
I0301 19:43:02.192170    49 net.cpp:380] pool3 -> pool3
I0301 19:43:02.192245    49 net.cpp:122] Setting up pool3
I0301 19:43:02.192255    49 net.cpp:129] Top shape: 20 256 28 28 (4014080)
I0301 19:43:02.192260    49 net.cpp:137] Memory required for data: 2051195200
I0301 19:43:02.192266    49 layer_factory.hpp:77] Creating layer conv4_1
I0301 19:43:02.192281    49 net.cpp:84] Creating Layer conv4_1
I0301 19:43:02.192286    49 net.cpp:406] conv4_1 <- pool3
I0301 19:43:02.192292    49 net.cpp:380] conv4_1 -> conv4_1
I0301 19:43:02.199023    49 net.cpp:122] Setting up conv4_1
I0301 19:43:02.199044    49 net.cpp:129] Top shape: 20 512 28 28 (8028160)
I0301 19:43:02.199048    49 net.cpp:137] Memory required for data: 2083307840
I0301 19:43:02.199059    49 layer_factory.hpp:77] Creating layer relu4_1
I0301 19:43:02.199070    49 net.cpp:84] Creating Layer relu4_1
I0301 19:43:02.199076    49 net.cpp:406] relu4_1 <- conv4_1
I0301 19:43:02.199084    49 net.cpp:367] relu4_1 -> conv4_1 (in-place)
I0301 19:43:02.199837    49 net.cpp:122] Setting up relu4_1
I0301 19:43:02.199853    49 net.cpp:129] Top shape: 20 512 28 28 (8028160)
I0301 19:43:02.199858    49 net.cpp:137] Memory required for data: 2115420480
I0301 19:43:02.199862    49 layer_factory.hpp:77] Creating layer conv4_2
I0301 19:43:02.199875    49 net.cpp:84] Creating Layer conv4_2
I0301 19:43:02.199880    49 net.cpp:406] conv4_2 <- conv4_1
I0301 19:43:02.199892    49 net.cpp:380] conv4_2 -> conv4_2
I0301 19:43:02.208977    49 net.cpp:122] Setting up conv4_2
I0301 19:43:02.209002    49 net.cpp:129] Top shape: 20 512 28 28 (8028160)
I0301 19:43:02.209007    49 net.cpp:137] Memory required for data: 2147533120
I0301 19:43:02.209025    49 layer_factory.hpp:77] Creating layer relu4_2
I0301 19:43:02.209035    49 net.cpp:84] Creating Layer relu4_2
I0301 19:43:02.209040    49 net.cpp:406] relu4_2 <- conv4_2
I0301 19:43:02.209048    49 net.cpp:367] relu4_2 -> conv4_2 (in-place)
I0301 19:43:02.209797    49 net.cpp:122] Setting up relu4_2
I0301 19:43:02.209815    49 net.cpp:129] Top shape: 20 512 28 28 (8028160)
I0301 19:43:02.209820    49 net.cpp:137] Memory required for data: 2179645760
I0301 19:43:02.209826    49 layer_factory.hpp:77] Creating layer conv4_3
I0301 19:43:02.209839    49 net.cpp:84] Creating Layer conv4_3
I0301 19:43:02.209844    49 net.cpp:406] conv4_3 <- conv4_2
I0301 19:43:02.209854    49 net.cpp:380] conv4_3 -> conv4_3
I0301 19:43:02.220885    49 net.cpp:122] Setting up conv4_3
I0301 19:43:02.220911    49 net.cpp:129] Top shape: 20 512 28 28 (8028160)
I0301 19:43:02.220916    49 net.cpp:137] Memory required for data: 2211758400
I0301 19:43:02.220928    49 layer_factory.hpp:77] Creating layer relu4_3
I0301 19:43:02.220957    49 net.cpp:84] Creating Layer relu4_3
I0301 19:43:02.220963    49 net.cpp:406] relu4_3 <- conv4_3
I0301 19:43:02.220971    49 net.cpp:367] relu4_3 -> conv4_3 (in-place)
I0301 19:43:02.222163    49 net.cpp:122] Setting up relu4_3
I0301 19:43:02.222182    49 net.cpp:129] Top shape: 20 512 28 28 (8028160)
I0301 19:43:02.222188    49 net.cpp:137] Memory required for data: 2243871040
I0301 19:43:02.222193    49 layer_factory.hpp:77] Creating layer pool4
I0301 19:43:02.222204    49 net.cpp:84] Creating Layer pool4
I0301 19:43:02.222209    49 net.cpp:406] pool4 <- conv4_3
I0301 19:43:02.222218    49 net.cpp:380] pool4 -> pool4
I0301 19:43:02.222295    49 net.cpp:122] Setting up pool4
I0301 19:43:02.222306    49 net.cpp:129] Top shape: 20 512 14 14 (2007040)
I0301 19:43:02.222311    49 net.cpp:137] Memory required for data: 2251899200
I0301 19:43:02.222316    49 layer_factory.hpp:77] Creating layer conv5_1
I0301 19:43:02.222327    49 net.cpp:84] Creating Layer conv5_1
I0301 19:43:02.222332    49 net.cpp:406] conv5_1 <- pool4
I0301 19:43:02.222347    49 net.cpp:380] conv5_1 -> conv5_1
I0301 19:43:02.231748    49 net.cpp:122] Setting up conv5_1
I0301 19:43:02.231789    49 net.cpp:129] Top shape: 20 512 14 14 (2007040)
I0301 19:43:02.231796    49 net.cpp:137] Memory required for data: 2259927360
I0301 19:43:02.231814    49 layer_factory.hpp:77] Creating layer relu5_1
I0301 19:43:02.231830    49 net.cpp:84] Creating Layer relu5_1
I0301 19:43:02.231839    49 net.cpp:406] relu5_1 <- conv5_1
I0301 19:43:02.231848    49 net.cpp:367] relu5_1 -> conv5_1 (in-place)
I0301 19:43:02.233638    49 net.cpp:122] Setting up relu5_1
I0301 19:43:02.233657    49 net.cpp:129] Top shape: 20 512 14 14 (2007040)
I0301 19:43:02.233662    49 net.cpp:137] Memory required for data: 2267955520
I0301 19:43:02.233669    49 layer_factory.hpp:77] Creating layer conv5_2
I0301 19:43:02.233685    49 net.cpp:84] Creating Layer conv5_2
I0301 19:43:02.233690    49 net.cpp:406] conv5_2 <- conv5_1
I0301 19:43:02.233701    49 net.cpp:380] conv5_2 -> conv5_2
I0301 19:43:02.243034    49 net.cpp:122] Setting up conv5_2
I0301 19:43:02.243065    49 net.cpp:129] Top shape: 20 512 14 14 (2007040)
I0301 19:43:02.243072    49 net.cpp:137] Memory required for data: 2275983680
I0301 19:43:02.243086    49 layer_factory.hpp:77] Creating layer relu5_2
I0301 19:43:02.243098    49 net.cpp:84] Creating Layer relu5_2
I0301 19:43:02.243104    49 net.cpp:406] relu5_2 <- conv5_2
I0301 19:43:02.243116    49 net.cpp:367] relu5_2 -> conv5_2 (in-place)
I0301 19:43:02.243878    49 net.cpp:122] Setting up relu5_2
I0301 19:43:02.243897    49 net.cpp:129] Top shape: 20 512 14 14 (2007040)
I0301 19:43:02.243903    49 net.cpp:137] Memory required for data: 2284011840
I0301 19:43:02.243909    49 layer_factory.hpp:77] Creating layer conv5_3
I0301 19:43:02.243927    49 net.cpp:84] Creating Layer conv5_3
I0301 19:43:02.243932    49 net.cpp:406] conv5_3 <- conv5_2
I0301 19:43:02.243942    49 net.cpp:380] conv5_3 -> conv5_3
I0301 19:43:02.253262    49 net.cpp:122] Setting up conv5_3
I0301 19:43:02.253290    49 net.cpp:129] Top shape: 20 512 14 14 (2007040)
I0301 19:43:02.253295    49 net.cpp:137] Memory required for data: 2292040000
I0301 19:43:02.253309    49 layer_factory.hpp:77] Creating layer relu5_3
I0301 19:43:02.253321    49 net.cpp:84] Creating Layer relu5_3
I0301 19:43:02.253327    49 net.cpp:406] relu5_3 <- conv5_3
I0301 19:43:02.253334    49 net.cpp:367] relu5_3 -> conv5_3 (in-place)
I0301 19:43:02.254101    49 net.cpp:122] Setting up relu5_3
I0301 19:43:02.254118    49 net.cpp:129] Top shape: 20 512 14 14 (2007040)
I0301 19:43:02.254123    49 net.cpp:137] Memory required for data: 2300068160
I0301 19:43:02.254128    49 layer_factory.hpp:77] Creating layer pool5
I0301 19:43:02.254145    49 net.cpp:84] Creating Layer pool5
I0301 19:43:02.254151    49 net.cpp:406] pool5 <- conv5_3
I0301 19:43:02.254160    49 net.cpp:380] pool5 -> pool5
I0301 19:43:02.254237    49 net.cpp:122] Setting up pool5
I0301 19:43:02.254250    49 net.cpp:129] Top shape: 20 512 7 7 (501760)
I0301 19:43:02.254287    49 net.cpp:137] Memory required for data: 2302075200
I0301 19:43:02.254292    49 layer_factory.hpp:77] Creating layer fc6
I0301 19:43:02.254305    49 net.cpp:84] Creating Layer fc6
I0301 19:43:02.254310    49 net.cpp:406] fc6 <- pool5
I0301 19:43:02.254321    49 net.cpp:380] fc6 -> fc6
I0301 19:43:02.565001    49 net.cpp:122] Setting up fc6
I0301 19:43:02.565052    49 net.cpp:129] Top shape: 20 4096 (81920)
I0301 19:43:02.565057    49 net.cpp:137] Memory required for data: 2302402880
I0301 19:43:02.565075    49 layer_factory.hpp:77] Creating layer relu6
I0301 19:43:02.565093    49 net.cpp:84] Creating Layer relu6
I0301 19:43:02.565099    49 net.cpp:406] relu6 <- fc6
I0301 19:43:02.565109    49 net.cpp:367] relu6 -> fc6 (in-place)
I0301 19:43:02.566694    49 net.cpp:122] Setting up relu6
I0301 19:43:02.566714    49 net.cpp:129] Top shape: 20 4096 (81920)
I0301 19:43:02.566718    49 net.cpp:137] Memory required for data: 2302730560
I0301 19:43:02.566726    49 layer_factory.hpp:77] Creating layer drop6
I0301 19:43:02.566736    49 net.cpp:84] Creating Layer drop6
I0301 19:43:02.566741    49 net.cpp:406] drop6 <- fc6
I0301 19:43:02.566751    49 net.cpp:367] drop6 -> fc6 (in-place)
I0301 19:43:02.566800    49 net.cpp:122] Setting up drop6
I0301 19:43:02.566810    49 net.cpp:129] Top shape: 20 4096 (81920)
I0301 19:43:02.566814    49 net.cpp:137] Memory required for data: 2303058240
I0301 19:43:02.566819    49 layer_factory.hpp:77] Creating layer fc7
I0301 19:43:02.566833    49 net.cpp:84] Creating Layer fc7
I0301 19:43:02.566838    49 net.cpp:406] fc7 <- fc6
I0301 19:43:02.566848    49 net.cpp:380] fc7 -> fc7
I0301 19:43:02.621872    49 net.cpp:122] Setting up fc7
I0301 19:43:02.621932    49 net.cpp:129] Top shape: 20 4096 (81920)
I0301 19:43:02.621938    49 net.cpp:137] Memory required for data: 2303385920
I0301 19:43:02.621987    49 layer_factory.hpp:77] Creating layer relu7
I0301 19:43:02.622005    49 net.cpp:84] Creating Layer relu7
I0301 19:43:02.622025    49 net.cpp:406] relu7 <- fc7
I0301 19:43:02.622042    49 net.cpp:367] relu7 -> fc7 (in-place)
I0301 19:43:02.623576    49 net.cpp:122] Setting up relu7
I0301 19:43:02.623594    49 net.cpp:129] Top shape: 20 4096 (81920)
I0301 19:43:02.623600    49 net.cpp:137] Memory required for data: 2303713600
I0301 19:43:02.623605    49 layer_factory.hpp:77] Creating layer drop7
I0301 19:43:02.623615    49 net.cpp:84] Creating Layer drop7
I0301 19:43:02.623620    49 net.cpp:406] drop7 <- fc7
I0301 19:43:02.623639    49 net.cpp:367] drop7 -> fc7 (in-place)
I0301 19:43:02.623693    49 net.cpp:122] Setting up drop7
I0301 19:43:02.623702    49 net.cpp:129] Top shape: 20 4096 (81920)
I0301 19:43:02.623705    49 net.cpp:137] Memory required for data: 2304041280
I0301 19:43:02.623710    49 layer_factory.hpp:77] Creating layer fc8
I0301 19:43:02.623721    49 net.cpp:84] Creating Layer fc8
I0301 19:43:02.623726    49 net.cpp:406] fc8 <- fc7
I0301 19:43:02.623736    49 net.cpp:380] fc8 -> fc8
I0301 19:43:02.635416    49 net.cpp:122] Setting up fc8
I0301 19:43:02.635449    49 net.cpp:129] Top shape: 20 1000 (20000)
I0301 19:43:02.635454    49 net.cpp:137] Memory required for data: 2304121280
I0301 19:43:02.635468    49 layer_factory.hpp:77] Creating layer fc8_fc8_0_split
I0301 19:43:02.635479    49 net.cpp:84] Creating Layer fc8_fc8_0_split
I0301 19:43:02.635488    49 net.cpp:406] fc8_fc8_0_split <- fc8
I0301 19:43:02.635498    49 net.cpp:380] fc8_fc8_0_split -> fc8_fc8_0_split_0
I0301 19:43:02.635524    49 net.cpp:380] fc8_fc8_0_split -> fc8_fc8_0_split_1
I0301 19:43:02.635534    49 net.cpp:380] fc8_fc8_0_split -> fc8_fc8_0_split_2
I0301 19:43:02.635622    49 net.cpp:122] Setting up fc8_fc8_0_split
I0301 19:43:02.635632    49 net.cpp:129] Top shape: 20 1000 (20000)
I0301 19:43:02.635637    49 net.cpp:129] Top shape: 20 1000 (20000)
I0301 19:43:02.635643    49 net.cpp:129] Top shape: 20 1000 (20000)
I0301 19:43:02.635648    49 net.cpp:137] Memory required for data: 2304361280
I0301 19:43:02.635651    49 layer_factory.hpp:77] Creating layer loss
I0301 19:43:02.635685    49 net.cpp:84] Creating Layer loss
I0301 19:43:02.635691    49 net.cpp:406] loss <- fc8_fc8_0_split_0
I0301 19:43:02.635699    49 net.cpp:406] loss <- label_data_1_split_0
I0301 19:43:02.635709    49 net.cpp:380] loss -> loss/loss
…
