…
I0226 06:16:37.344528    35 net.cpp:294] The NetState phase (0) differed from the phase (1) specified by a rule in layer accuracy/top5
I0226 06:16:37.344748    35 net.cpp:51] Initializing net from parameters: 
name: "VGG_ILSVRC_16_layers"
state {
  phase: TRAIN
  level: 0
  stage: ""
}
layer {
  name: "data"
  type: "Data"
  top: "data"
  top: "label"
  include {
    phase: TRAIN
  }
  transform_param {
    mirror: true
    crop_size: 224
    mean_value: 104
    mean_value: 117
    mean_value: 123
  }
  data_param {
    source: "imagenet_train_0.5"
    batch_size: 75
    backend: LMDB
  }
}
layer {
  name: "conv1_1"
  type: "Convolution"
  bottom: "data"
  top: "conv1_1"
  convolution_param {
    num_output: 64
    pad: 1
    kernel_size: 3
    weight_filler {
      type: "xavier"
      std: 0.1
    }
  }
}
layer {
  name: "relu1_1"
  type: "ReLU"
  bottom: "conv1_1"
  top: "conv1_1"
}
layer {
  name: "conv1_2"
  type: "Convolution"
  bottom: "conv1_1"
  top: "conv1_2"
  convolution_param {
    num_output: 64
    pad: 1
    kernel_size: 3
    weight_filler {
      type: "xavier"
      std: 0.1
    }
  }
}
layer {
  name: "relu1_2"
  type: "ReLU"
  bottom: "conv1_2"
  top: "conv1_2"
}
layer {
  name: "pool1"
  type: "Pooling"
  bottom: "conv1_2"
  top: "pool1"
  pooling_param {
    pool: MAX
    kernel_size: 2
    stride: 2
  }
}
layer {
  name: "conv2_1"
  type: "Convolution"
  bottom: "pool1"
  top: "conv2_1"
  convolution_param {
    num_output: 128
    pad: 1
    kernel_size: 3
    weight_filler {
      type: "xavier"
      std: 0.1
    }
  }
}
layer {
  name: "relu2_1"
  type: "ReLU"
  bottom: "conv2_1"
  top: "conv2_1"
}
layer {
  name: "conv2_2"
  type: "Convolution"
  bottom: "conv2_1"
  top: "conv2_2"
  convolution_param {
    num_output: 128
    pad: 1
    kernel_size: 3
    weight_filler {
      type: "xavier"
      std: 0.1
    }
  }
}
layer {
  name: "relu2_2"
  type: "ReLU"
  bottom: "conv2_2"
  top: "conv2_2"
}
layer {
  name: "pool2"
  type: "Pooling"
  bottom: "conv2_2"
  top: "pool2"
  pooling_param {
    pool: MAX
    kernel_size: 2
    stride: 2
  }
}
layer {
  name: "conv3_1"
  type: "Convolution"
  bottom: "pool2"
  top: "conv3_1"
  convolution_param {
    num_output: 256
    pad: 1
    kernel_size: 3
    weight_filler {
      type: "xavier"
      std: 0.1
    }
  }
}
layer {
  name: "relu3_1"
  type: "ReLU"
  bottom: "conv3_1"
  top: "conv3_1"
}
layer {
  name: "conv3_2"
  type: "Convolution"
  bottom: "conv3_1"
  top: "conv3_2"
  convolution_param {
    num_output: 256
    pad: 1
    kernel_size: 3
    weight_filler {
      type: "xavier"
      std: 0.1
    }
  }
}
layer {
  name: "relu3_2"
  type: "ReLU"
  bottom: "conv3_2"
  top: "conv3_2"
}
layer {
  name: "conv3_3"
  type: "Convolution"
  bottom: "conv3_2"
  top: "conv3_3"
  convolution_param {
    num_output: 256
    pad: 1
    kernel_size: 3
    weight_filler {
      type: "xavier"
      std: 0.1
    }
  }
}
layer {
  name: "relu3_3"
  type: "ReLU"
  bottom: "conv3_3"
  top: "conv3_3"
}
layer {
  name: "pool3"
  type: "Pooling"
  bottom: "conv3_3"
  top: "pool3"
  pooling_param {
    pool: MAX
    kernel_size: 2
    stride: 2
  }
}
layer {
  name: "conv4_1"
  type: "Convolution"
  bottom: "pool3"
  top: "conv4_1"
  convolution_param {
    num_output: 512
    pad: 1
    kernel_size: 3
    weight_filler {
      type: "xavier"
      std: 0.1
    }
  }
}
layer {
  name: "relu4_1"
  type: "ReLU"
  bottom: "conv4_1"
  top: "conv4_1"
}
layer {
  name: "conv4_2"
  type: "Convolution"
  bottom: "conv4_1"
  top: "conv4_2"
  convolution_param {
    num_output: 512
    pad: 1
    kernel_size: 3
    weight_filler {
      type: "xavier"
      std: 0.1
    }
  }
}
layer {
  name: "relu4_2"
  type: "ReLU"
  bottom: "conv4_2"
  top: "conv4_2"
}
layer {
  name: "conv4_3"
  type: "Convolution"
  bottom: "conv4_2"
  top: "conv4_3"
  convolution_param {
    num_output: 512
    pad: 1
    kernel_size: 3
    weight_filler {
      type: "xavier"
      std: 0.1
    }
  }
}
layer {
  name: "relu4_3"
  type: "ReLU"
  bottom: "conv4_3"
  top: "conv4_3"
}
layer {
  name: "pool4"
  type: "Pooling"
  bottom: "conv4_3"
  top: "pool4"
  pooling_param {
    pool: MAX
    kernel_size: 2
    stride: 2
  }
}
layer {
  name: "conv5_1"
  type: "Convolution"
  bottom: "pool4"
  top: "conv5_1"
  convolution_param {
    num_output: 512
    pad: 1
    kernel_size: 3
    weight_filler {
      type: "xavier"
      std: 0.1
    }
  }
}
layer {
  name: "relu5_1"
  type: "ReLU"
  bottom: "conv5_1"
  top: "conv5_1"
}
layer {
  name: "conv5_2"
  type: "Convolution"
  bottom: "conv5_1"
  top: "conv5_2"
  convolution_param {
    num_output: 512
    pad: 1
    kernel_size: 3
    weight_filler {
      type: "xavier"
      std: 0.1
    }
  }
}
layer {
  name: "relu5_2"
  type: "ReLU"
  bottom: "conv5_2"
  top: "conv5_2"
}
layer {
  name: "conv5_3"
  type: "Convolution"
  bottom: "conv5_2"
  top: "conv5_3"
  convolution_param {
    num_output: 512
    pad: 1
    kernel_size: 3
    weight_filler {
      type: "xavier"
      std: 0.1
    }
  }
}
layer {
  name: "relu5_3"
  type: "ReLU"
  bottom: "conv5_3"
  top: "conv5_3"
}
layer {
  name: "pool5"
  type: "Pooling"
  bottom: "conv5_3"
  top: "pool5"
  pooling_param {
    pool: MAX
    kernel_size: 2
    stride: 2
  }
}
layer {
  name: "fc6"
  type: "InnerProduct"
  bottom: "pool5"
  top: "fc6"
  inner_product_param {
    num_output: 4096
    weight_filler {
      type: "xavier"
      std: 0.1
    }
  }
}
layer {
  name: "relu6"
  type: "ReLU"
  bottom: "fc6"
  top: "fc6"
}
layer {
  name: "drop6"
  type: "Dropout"
  bottom: "fc6"
  top: "fc6"
  dropout_param {
    dropout_ratio: 0.5
  }
}
layer {
  name: "fc7"
  type: "InnerProduct"
  bottom: "fc6"
  top: "fc7"
  inner_product_param {
    num_output: 4096
    weight_filler {
      type: "xavier"
      std: 0.1
    }
  }
}
layer {
  name: "relu7"
  type: "ReLU"
  bottom: "fc7"
  top: "fc7"
}
layer {
  name: "drop7"
  type: "Dropout"
  bottom: "fc7"
  top: "fc7"
  dropout_param {
    dropout_ratio: 0.5
  }
}
layer {
  name: "fc8"
  type: "InnerProduct"
  bottom: "fc7"
  top: "fc8"
  inner_product_param {
    num_output: 1000
    weight_filler {
      type: "xavier"
      std: 0.1
    }
  }
}
layer {
  name: "loss"
  type: "SoftmaxWithLoss"
  bottom: "fc8"
  bottom: "label"
  top: "loss/loss"
}
I0226 06:16:37.344938    35 layer_factory.hpp:77] Creating layer data
I0226 06:16:40.002837    35 db_lmdb.cpp:35] Opened lmdb imagenet_train_0.5
I0226 06:16:44.683701    35 net.cpp:84] Creating Layer data
I0226 06:16:44.683743    35 net.cpp:380] data -> data
I0226 06:16:44.683787    35 net.cpp:380] data -> label
I0226 06:16:44.686434    35 data_layer.cpp:46] output data size: 75,3,224,224
I0226 06:16:44.830154    35 net.cpp:122] Setting up data
I0226 06:16:44.830193    35 net.cpp:129] Top shape: 75 3 224 224 (11289600)
I0226 06:16:44.830200    35 net.cpp:129] Top shape: 75 (75)
I0226 06:16:44.830205    35 net.cpp:137] Memory required for data: 45158700
I0226 06:16:44.830217    35 layer_factory.hpp:77] Creating layer conv1_1
I0226 06:16:44.830240    35 net.cpp:84] Creating Layer conv1_1
I0226 06:16:44.830248    35 net.cpp:406] conv1_1 <- data
I0226 06:16:44.830299    35 net.cpp:380] conv1_1 -> conv1_1
I0226 06:16:56.929450    35 net.cpp:122] Setting up conv1_1
I0226 06:16:56.929508    35 net.cpp:129] Top shape: 75 64 224 224 (240844800)
I0226 06:16:56.929522    35 net.cpp:137] Memory required for data: 1008537900
I0226 06:16:56.929577    35 layer_factory.hpp:77] Creating layer relu1_1
I0226 06:16:56.929603    35 net.cpp:84] Creating Layer relu1_1
I0226 06:16:56.929610    35 net.cpp:406] relu1_1 <- conv1_1
I0226 06:16:56.929623    35 net.cpp:367] relu1_1 -> conv1_1 (in-place)
I0226 06:16:56.930312    35 net.cpp:122] Setting up relu1_1
I0226 06:16:56.930333    35 net.cpp:129] Top shape: 75 64 224 224 (240844800)
I0226 06:16:56.930338    35 net.cpp:137] Memory required for data: 1971917100
I0226 06:16:56.930344    35 layer_factory.hpp:77] Creating layer conv1_2
I0226 06:16:56.930359    35 net.cpp:84] Creating Layer conv1_2
I0226 06:16:56.930364    35 net.cpp:406] conv1_2 <- conv1_1
I0226 06:16:56.930375    35 net.cpp:380] conv1_2 -> conv1_2
I0226 06:16:56.940512    35 net.cpp:122] Setting up conv1_2
I0226 06:16:56.940538    35 net.cpp:129] Top shape: 75 64 224 224 (240844800)
I0226 06:16:56.940543    35 net.cpp:137] Memory required for data: 2935296300
I0226 06:16:56.940557    35 layer_factory.hpp:77] Creating layer relu1_2
I0226 06:16:56.940568    35 net.cpp:84] Creating Layer relu1_2
I0226 06:16:56.940573    35 net.cpp:406] relu1_2 <- conv1_2
I0226 06:16:56.940582    35 net.cpp:367] relu1_2 -> conv1_2 (in-place)
I0226 06:16:56.941267    35 net.cpp:122] Setting up relu1_2
I0226 06:16:56.941308    35 net.cpp:129] Top shape: 75 64 224 224 (240844800)
I0226 06:16:56.941313    35 net.cpp:137] Memory required for data: 3898675500
I0226 06:16:56.941328    35 layer_factory.hpp:77] Creating layer pool1
I0226 06:16:56.941342    35 net.cpp:84] Creating Layer pool1
I0226 06:16:56.941350    35 net.cpp:406] pool1 <- conv1_2
I0226 06:16:56.941357    35 net.cpp:380] pool1 -> pool1
I0226 06:16:56.941442    35 net.cpp:122] Setting up pool1
I0226 06:16:56.941452    35 net.cpp:129] Top shape: 75 64 112 112 (60211200)
I0226 06:16:56.941458    35 net.cpp:137] Memory required for data: 4139520300
I0226 06:16:56.941462    35 layer_factory.hpp:77] Creating layer conv2_1
I0226 06:16:56.941474    35 net.cpp:84] Creating Layer conv2_1
I0226 06:16:56.941479    35 net.cpp:406] conv2_1 <- pool1
I0226 06:16:56.941488    35 net.cpp:380] conv2_1 -> conv2_1
I0226 06:16:56.952353    35 net.cpp:122] Setting up conv2_1
I0226 06:16:56.952375    35 net.cpp:129] Top shape: 75 128 112 112 (120422400)
I0226 06:16:56.952381    35 net.cpp:137] Memory required for data: 4621209900
I0226 06:16:56.952399    35 layer_factory.hpp:77] Creating layer relu2_1
I0226 06:16:56.952409    35 net.cpp:84] Creating Layer relu2_1
I0226 06:16:56.952414    35 net.cpp:406] relu2_1 <- conv2_1
I0226 06:16:56.952420    35 net.cpp:367] relu2_1 -> conv2_1 (in-place)
I0226 06:16:56.953477    35 net.cpp:122] Setting up relu2_1
I0226 06:16:56.953501    35 net.cpp:129] Top shape: 75 128 112 112 (120422400)
I0226 06:16:56.953506    35 net.cpp:137] Memory required for data: 5102899500
I0226 06:16:56.953511    35 layer_factory.hpp:77] Creating layer conv2_2
I0226 06:16:56.953526    35 net.cpp:84] Creating Layer conv2_2
I0226 06:16:56.953531    35 net.cpp:406] conv2_2 <- conv2_1
I0226 06:16:56.953539    35 net.cpp:380] conv2_2 -> conv2_2
I0226 06:16:56.957679    35 net.cpp:122] Setting up conv2_2
I0226 06:16:56.957705    35 net.cpp:129] Top shape: 75 128 112 112 (120422400)
I0226 06:16:56.957710    35 net.cpp:137] Memory required for data: 5584589100
I0226 06:16:56.957731    35 layer_factory.hpp:77] Creating layer relu2_2
I0226 06:16:56.957739    35 net.cpp:84] Creating Layer relu2_2
I0226 06:16:56.957746    35 net.cpp:406] relu2_2 <- conv2_2
I0226 06:16:56.957752    35 net.cpp:367] relu2_2 -> conv2_2 (in-place)
I0226 06:16:56.958410    35 net.cpp:122] Setting up relu2_2
I0226 06:16:56.958431    35 net.cpp:129] Top shape: 75 128 112 112 (120422400)
I0226 06:16:56.958436    35 net.cpp:137] Memory required for data: 6066278700
I0226 06:16:56.958441    35 layer_factory.hpp:77] Creating layer pool2
I0226 06:16:56.958477    35 net.cpp:84] Creating Layer pool2
I0226 06:16:56.958482    35 net.cpp:406] pool2 <- conv2_2
I0226 06:16:56.958492    35 net.cpp:380] pool2 -> pool2
I0226 06:16:56.958554    35 net.cpp:122] Setting up pool2
I0226 06:16:56.958562    35 net.cpp:129] Top shape: 75 128 56 56 (30105600)
I0226 06:16:56.958566    35 net.cpp:137] Memory required for data: 6186701100
I0226 06:16:56.958572    35 layer_factory.hpp:77] Creating layer conv3_1
I0226 06:16:56.958585    35 net.cpp:84] Creating Layer conv3_1
I0226 06:16:56.958590    35 net.cpp:406] conv3_1 <- pool2
I0226 06:16:56.958598    35 net.cpp:380] conv3_1 -> conv3_1
I0226 06:16:56.963671    35 net.cpp:122] Setting up conv3_1
I0226 06:16:56.963695    35 net.cpp:129] Top shape: 75 256 56 56 (60211200)
I0226 06:16:56.963699    35 net.cpp:137] Memory required for data: 6427545900
I0226 06:16:56.963713    35 layer_factory.hpp:77] Creating layer relu3_1
I0226 06:16:56.963726    35 net.cpp:84] Creating Layer relu3_1
I0226 06:16:56.963730    35 net.cpp:406] relu3_1 <- conv3_1
I0226 06:16:56.963737    35 net.cpp:367] relu3_1 -> conv3_1 (in-place)
I0226 06:16:56.964387    35 net.cpp:122] Setting up relu3_1
I0226 06:16:56.964406    35 net.cpp:129] Top shape: 75 256 56 56 (60211200)
I0226 06:16:56.964409    35 net.cpp:137] Memory required for data: 6668390700
I0226 06:16:56.964423    35 layer_factory.hpp:77] Creating layer conv3_2
I0226 06:16:56.964437    35 net.cpp:84] Creating Layer conv3_2
I0226 06:16:56.964442    35 net.cpp:406] conv3_2 <- conv3_1
I0226 06:16:56.964452    35 net.cpp:380] conv3_2 -> conv3_2
I0226 06:16:56.972935    35 net.cpp:122] Setting up conv3_2
I0226 06:16:56.972959    35 net.cpp:129] Top shape: 75 256 56 56 (60211200)
I0226 06:16:56.972965    35 net.cpp:137] Memory required for data: 6909235500
I0226 06:16:56.972975    35 layer_factory.hpp:77] Creating layer relu3_2
I0226 06:16:56.972986    35 net.cpp:84] Creating Layer relu3_2
I0226 06:16:56.972991    35 net.cpp:406] relu3_2 <- conv3_2
I0226 06:16:56.973000    35 net.cpp:367] relu3_2 -> conv3_2 (in-place)
I0226 06:16:56.974004    35 net.cpp:122] Setting up relu3_2
I0226 06:16:56.974025    35 net.cpp:129] Top shape: 75 256 56 56 (60211200)
I0226 06:16:56.974030    35 net.cpp:137] Memory required for data: 7150080300
I0226 06:16:56.974035    35 layer_factory.hpp:77] Creating layer conv3_3
I0226 06:16:56.974047    35 net.cpp:84] Creating Layer conv3_3
I0226 06:16:56.974052    35 net.cpp:406] conv3_3 <- conv3_2
I0226 06:16:56.974063    35 net.cpp:380] conv3_3 -> conv3_3
I0226 06:16:56.982602    35 net.cpp:122] Setting up conv3_3
I0226 06:16:56.982625    35 net.cpp:129] Top shape: 75 256 56 56 (60211200)
I0226 06:16:56.982630    35 net.cpp:137] Memory required for data: 7390925100
I0226 06:16:56.982641    35 layer_factory.hpp:77] Creating layer relu3_3
I0226 06:16:56.982655    35 net.cpp:84] Creating Layer relu3_3
I0226 06:16:56.982659    35 net.cpp:406] relu3_3 <- conv3_3
I0226 06:16:56.982669    35 net.cpp:367] relu3_3 -> conv3_3 (in-place)
I0226 06:16:56.983327    35 net.cpp:122] Setting up relu3_3
I0226 06:16:56.983347    35 net.cpp:129] Top shape: 75 256 56 56 (60211200)
I0226 06:16:56.983352    35 net.cpp:137] Memory required for data: 7631769900
I0226 06:16:56.983366    35 layer_factory.hpp:77] Creating layer pool3
I0226 06:16:56.983373    35 net.cpp:84] Creating Layer pool3
I0226 06:16:56.983379    35 net.cpp:406] pool3 <- conv3_3
I0226 06:16:56.983393    35 net.cpp:380] pool3 -> pool3
I0226 06:16:56.983456    35 net.cpp:122] Setting up pool3
I0226 06:16:56.983464    35 net.cpp:129] Top shape: 75 256 28 28 (15052800)
I0226 06:16:56.983469    35 net.cpp:137] Memory required for data: 7691981100
I0226 06:16:56.983474    35 layer_factory.hpp:77] Creating layer conv4_1
I0226 06:16:56.983485    35 net.cpp:84] Creating Layer conv4_1
I0226 06:16:56.983490    35 net.cpp:406] conv4_1 <- pool3
I0226 06:16:56.983500    35 net.cpp:380] conv4_1 -> conv4_1
I0226 06:16:56.998301    35 net.cpp:122] Setting up conv4_1
I0226 06:16:56.998325    35 net.cpp:129] Top shape: 75 512 28 28 (30105600)
I0226 06:16:56.998353    35 net.cpp:137] Memory required for data: 7812403500
I0226 06:16:56.998364    35 layer_factory.hpp:77] Creating layer relu4_1
I0226 06:16:56.998376    35 net.cpp:84] Creating Layer relu4_1
I0226 06:16:56.998381    35 net.cpp:406] relu4_1 <- conv4_1
I0226 06:16:56.998389    35 net.cpp:367] relu4_1 -> conv4_1 (in-place)
I0226 06:16:56.999060    35 net.cpp:122] Setting up relu4_1
I0226 06:16:56.999078    35 net.cpp:129] Top shape: 75 512 28 28 (30105600)
I0226 06:16:56.999081    35 net.cpp:137] Memory required for data: 7932825900
I0226 06:16:56.999086    35 layer_factory.hpp:77] Creating layer conv4_2
I0226 06:16:56.999107    35 net.cpp:84] Creating Layer conv4_2
I0226 06:16:56.999114    35 net.cpp:406] conv4_2 <- conv4_1
I0226 06:16:56.999124    35 net.cpp:380] conv4_2 -> conv4_2
I0226 06:16:57.022300    35 net.cpp:122] Setting up conv4_2
I0226 06:16:57.022326    35 net.cpp:129] Top shape: 75 512 28 28 (30105600)
I0226 06:16:57.022332    35 net.cpp:137] Memory required for data: 8053248300
I0226 06:16:57.022352    35 layer_factory.hpp:77] Creating layer relu4_2
I0226 06:16:57.022362    35 net.cpp:84] Creating Layer relu4_2
I0226 06:16:57.022368    35 net.cpp:406] relu4_2 <- conv4_2
I0226 06:16:57.022378    35 net.cpp:367] relu4_2 -> conv4_2 (in-place)
I0226 06:16:57.023031    35 net.cpp:122] Setting up relu4_2
I0226 06:16:57.023047    35 net.cpp:129] Top shape: 75 512 28 28 (30105600)
I0226 06:16:57.023052    35 net.cpp:137] Memory required for data: 8173670700
I0226 06:16:57.023057    35 layer_factory.hpp:77] Creating layer conv4_3
I0226 06:16:57.023070    35 net.cpp:84] Creating Layer conv4_3
I0226 06:16:57.023075    35 net.cpp:406] conv4_3 <- conv4_2
I0226 06:16:57.023087    35 net.cpp:380] conv4_3 -> conv4_3
I0226 06:16:57.046327    35 net.cpp:122] Setting up conv4_3
I0226 06:16:57.046355    35 net.cpp:129] Top shape: 75 512 28 28 (30105600)
I0226 06:16:57.046360    35 net.cpp:137] Memory required for data: 8294093100
I0226 06:16:57.046371    35 layer_factory.hpp:77] Creating layer relu4_3
I0226 06:16:57.046383    35 net.cpp:84] Creating Layer relu4_3
I0226 06:16:57.046389    35 net.cpp:406] relu4_3 <- conv4_3
I0226 06:16:57.046396    35 net.cpp:367] relu4_3 -> conv4_3 (in-place)
I0226 06:16:57.047428    35 net.cpp:122] Setting up relu4_3
I0226 06:16:57.047449    35 net.cpp:129] Top shape: 75 512 28 28 (30105600)
I0226 06:16:57.047454    35 net.cpp:137] Memory required for data: 8414515500
I0226 06:16:57.047459    35 layer_factory.hpp:77] Creating layer pool4
I0226 06:16:57.047483    35 net.cpp:84] Creating Layer pool4
I0226 06:16:57.047489    35 net.cpp:406] pool4 <- conv4_3
I0226 06:16:57.047499    35 net.cpp:380] pool4 -> pool4
I0226 06:16:57.047566    35 net.cpp:122] Setting up pool4
I0226 06:16:57.047575    35 net.cpp:129] Top shape: 75 512 14 14 (7526400)
I0226 06:16:57.047580    35 net.cpp:137] Memory required for data: 8444621100
I0226 06:16:57.047585    35 layer_factory.hpp:77] Creating layer conv5_1
I0226 06:16:57.047596    35 net.cpp:84] Creating Layer conv5_1
I0226 06:16:57.047602    35 net.cpp:406] conv5_1 <- pool4
I0226 06:16:57.047611    35 net.cpp:380] conv5_1 -> conv5_1
I0226 06:16:57.070797    35 net.cpp:122] Setting up conv5_1
I0226 06:16:57.070825    35 net.cpp:129] Top shape: 75 512 14 14 (7526400)
I0226 06:16:57.070832    35 net.cpp:137] Memory required for data: 8474726700
I0226 06:16:57.070842    35 layer_factory.hpp:77] Creating layer relu5_1
I0226 06:16:57.070855    35 net.cpp:84] Creating Layer relu5_1
I0226 06:16:57.070861    35 net.cpp:406] relu5_1 <- conv5_1
I0226 06:16:57.070869    35 net.cpp:367] relu5_1 -> conv5_1 (in-place)
I0226 06:16:57.071529    35 net.cpp:122] Setting up relu5_1
I0226 06:16:57.071548    35 net.cpp:129] Top shape: 75 512 14 14 (7526400)
I0226 06:16:57.071552    35 net.cpp:137] Memory required for data: 8504832300
I0226 06:16:57.071558    35 layer_factory.hpp:77] Creating layer conv5_2
I0226 06:16:57.071570    35 net.cpp:84] Creating Layer conv5_2
I0226 06:16:57.071575    35 net.cpp:406] conv5_2 <- conv5_1
I0226 06:16:57.071607    35 net.cpp:380] conv5_2 -> conv5_2
I0226 06:16:57.095023    35 net.cpp:122] Setting up conv5_2
I0226 06:16:57.095051    35 net.cpp:129] Top shape: 75 512 14 14 (7526400)
I0226 06:16:57.095055    35 net.cpp:137] Memory required for data: 8534937900
I0226 06:16:57.095074    35 layer_factory.hpp:77] Creating layer relu5_2
I0226 06:16:57.095084    35 net.cpp:84] Creating Layer relu5_2
I0226 06:16:57.095089    35 net.cpp:406] relu5_2 <- conv5_2
I0226 06:16:57.095096    35 net.cpp:367] relu5_2 -> conv5_2 (in-place)
I0226 06:16:57.095757    35 net.cpp:122] Setting up relu5_2
I0226 06:16:57.095777    35 net.cpp:129] Top shape: 75 512 14 14 (7526400)
I0226 06:16:57.095780    35 net.cpp:137] Memory required for data: 8565043500
I0226 06:16:57.095785    35 layer_factory.hpp:77] Creating layer conv5_3
I0226 06:16:57.095798    35 net.cpp:84] Creating Layer conv5_3
I0226 06:16:57.095803    35 net.cpp:406] conv5_3 <- conv5_2
I0226 06:16:57.095811    35 net.cpp:380] conv5_3 -> conv5_3
I0226 06:16:57.119005    35 net.cpp:122] Setting up conv5_3
I0226 06:16:57.119030    35 net.cpp:129] Top shape: 75 512 14 14 (7526400)
I0226 06:16:57.119036    35 net.cpp:137] Memory required for data: 8595149100
I0226 06:16:57.119047    35 layer_factory.hpp:77] Creating layer relu5_3
I0226 06:16:57.119056    35 net.cpp:84] Creating Layer relu5_3
I0226 06:16:57.119061    35 net.cpp:406] relu5_3 <- conv5_3
I0226 06:16:57.119071    35 net.cpp:367] relu5_3 -> conv5_3 (in-place)
I0226 06:16:57.120144    35 net.cpp:122] Setting up relu5_3
I0226 06:16:57.120165    35 net.cpp:129] Top shape: 75 512 14 14 (7526400)
I0226 06:16:57.120170    35 net.cpp:137] Memory required for data: 8625254700
I0226 06:16:57.120177    35 layer_factory.hpp:77] Creating layer pool5
I0226 06:16:57.120187    35 net.cpp:84] Creating Layer pool5
I0226 06:16:57.120191    35 net.cpp:406] pool5 <- conv5_3
I0226 06:16:57.120201    35 net.cpp:380] pool5 -> pool5
I0226 06:16:57.120270    35 net.cpp:122] Setting up pool5
I0226 06:16:57.120280    35 net.cpp:129] Top shape: 75 512 7 7 (1881600)
I0226 06:16:57.120283    35 net.cpp:137] Memory required for data: 8632781100
I0226 06:16:57.120287    35 layer_factory.hpp:77] Creating layer fc6
I0226 06:16:57.120316    35 net.cpp:84] Creating Layer fc6
I0226 06:16:57.120321    35 net.cpp:406] fc6 <- pool5
I0226 06:16:57.120329    35 net.cpp:380] fc6 -> fc6
I0226 06:16:58.045966    35 net.cpp:122] Setting up fc6
I0226 06:16:58.046030    35 net.cpp:129] Top shape: 75 4096 (307200)
I0226 06:16:58.046036    35 net.cpp:137] Memory required for data: 8634009900
I0226 06:16:58.046063    35 layer_factory.hpp:77] Creating layer relu6
I0226 06:16:58.046116    35 net.cpp:84] Creating Layer relu6
I0226 06:16:58.046125    35 net.cpp:406] relu6 <- fc6
I0226 06:16:58.046136    35 net.cpp:367] relu6 -> fc6 (in-place)
I0226 06:16:58.047160    35 net.cpp:122] Setting up relu6
I0226 06:16:58.047178    35 net.cpp:129] Top shape: 75 4096 (307200)
I0226 06:16:58.047183    35 net.cpp:137] Memory required for data: 8635238700
I0226 06:16:58.047188    35 layer_factory.hpp:77] Creating layer drop6
I0226 06:16:58.047235    35 net.cpp:84] Creating Layer drop6
I0226 06:16:58.047241    35 net.cpp:406] drop6 <- fc6
I0226 06:16:58.047250    35 net.cpp:367] drop6 -> fc6 (in-place)
I0226 06:16:58.047297    35 net.cpp:122] Setting up drop6
I0226 06:16:58.047305    35 net.cpp:129] Top shape: 75 4096 (307200)
I0226 06:16:58.047309    35 net.cpp:137] Memory required for data: 8636467500
I0226 06:16:58.047315    35 layer_factory.hpp:77] Creating layer fc7
I0226 06:16:58.047338    35 net.cpp:84] Creating Layer fc7
I0226 06:16:58.047343    35 net.cpp:406] fc7 <- fc6
I0226 06:16:58.047348    35 net.cpp:380] fc7 -> fc7
I0226 06:16:58.199335    35 net.cpp:122] Setting up fc7
I0226 06:16:58.199383    35 net.cpp:129] Top shape: 75 4096 (307200)
I0226 06:16:58.199388    35 net.cpp:137] Memory required for data: 8637696300
I0226 06:16:58.199406    35 layer_factory.hpp:77] Creating layer relu7
I0226 06:16:58.199429    35 net.cpp:84] Creating Layer relu7
I0226 06:16:58.199435    35 net.cpp:406] relu7 <- fc7
I0226 06:16:58.199491    35 net.cpp:367] relu7 -> fc7 (in-place)
I0226 06:16:58.200278    35 net.cpp:122] Setting up relu7
I0226 06:16:58.200295    35 net.cpp:129] Top shape: 75 4096 (307200)
I0226 06:16:58.200299    35 net.cpp:137] Memory required for data: 8638925100
I0226 06:16:58.200304    35 layer_factory.hpp:77] Creating layer drop7
I0226 06:16:58.200315    35 net.cpp:84] Creating Layer drop7
I0226 06:16:58.200321    35 net.cpp:406] drop7 <- fc7
I0226 06:16:58.200328    35 net.cpp:367] drop7 -> fc7 (in-place)
I0226 06:16:58.200371    35 net.cpp:122] Setting up drop7
I0226 06:16:58.200379    35 net.cpp:129] Top shape: 75 4096 (307200)
I0226 06:16:58.200384    35 net.cpp:137] Memory required for data: 8640153900
I0226 06:16:58.200388    35 layer_factory.hpp:77] Creating layer fc8
I0226 06:16:58.200397    35 net.cpp:84] Creating Layer fc8
I0226 06:16:58.200402    35 net.cpp:406] fc8 <- fc7
I0226 06:16:58.200412    35 net.cpp:380] fc8 -> fc8
I0226 06:16:58.238484    35 net.cpp:122] Setting up fc8
I0226 06:16:58.238533    35 net.cpp:129] Top shape: 75 1000 (75000)
I0226 06:16:58.238538    35 net.cpp:137] Memory required for data: 8640453900
I0226 06:16:58.238557    35 layer_factory.hpp:77] Creating layer loss
I0226 06:16:58.238570    35 net.cpp:84] Creating Layer loss
I0226 06:16:58.238577    35 net.cpp:406] loss <- fc8
I0226 06:16:58.238585    35 net.cpp:406] loss <- label
I0226 06:16:58.238605    35 net.cpp:380] loss -> loss/loss
I0226 06:16:58.238622    35 layer_factory.hpp:77] Creating layer loss
…
