…
I0301 05:43:12.455292    47 net.cpp:294] The NetState phase (0) differed from the phase (1) specified by a rule in layer accuracy/top5
I0301 05:43:12.455523    47 net.cpp:51] Initializing net from parameters: 
name: "VGG_ILSVRC_16_layers"
state {
  phase: TRAIN
  level: 0
  stage: ""
}
layer {
  name: "data"
  type: "Data"
  top: "data"
  top: "label"
  include {
    phase: TRAIN
  }
  transform_param {
    mirror: true
    crop_size: 224
    mean_value: 104
    mean_value: 117
    mean_value: 123
  }
  data_param {
    source: "imagenet_train_0.5"
    batch_size: 75
    backend: LMDB
  }
}
layer {
  name: "conv1_1"
  type: "Convolution"
  bottom: "data"
  top: "conv1_1"
  param {
    lr_mult: 0
  }
  param {
    lr_mult: 0
  }
  convolution_param {
    num_output: 64
    pad: 1
    kernel_size: 3
  }
}
layer {
  name: "relu1_1"
  type: "ReLU"
  bottom: "conv1_1"
  top: "conv1_1"
}
layer {
  name: "conv1_2"
  type: "Convolution"
  bottom: "conv1_1"
  top: "conv1_2"
  param {
    lr_mult: 0
  }
  param {
    lr_mult: 0
  }
  convolution_param {
    num_output: 64
    pad: 1
    kernel_size: 3
  }
}
layer {
  name: "relu1_2"
  type: "ReLU"
  bottom: "conv1_2"
  top: "conv1_2"
}
layer {
  name: "pool1"
  type: "Pooling"
  bottom: "conv1_2"
  top: "pool1"
  pooling_param {
    pool: MAX
    kernel_size: 2
    stride: 2
  }
}
layer {
  name: "conv2_1"
  type: "Convolution"
  bottom: "pool1"
  top: "conv2_1"
  param {
    lr_mult: 0
  }
  param {
    lr_mult: 0
  }
  convolution_param {
    num_output: 128
    pad: 1
    kernel_size: 3
  }
}
layer {
  name: "relu2_1"
  type: "ReLU"
  bottom: "conv2_1"
  top: "conv2_1"
}
layer {
  name: "conv2_2"
  type: "Convolution"
  bottom: "conv2_1"
  top: "conv2_2"
  param {
    lr_mult: 0
  }
  param {
    lr_mult: 0
  }
  convolution_param {
    num_output: 128
    pad: 1
    kernel_size: 3
  }
}
layer {
  name: "relu2_2"
  type: "ReLU"
  bottom: "conv2_2"
  top: "conv2_2"
}
layer {
  name: "pool2"
  type: "Pooling"
  bottom: "conv2_2"
  top: "pool2"
  pooling_param {
    pool: MAX
    kernel_size: 2
    stride: 2
  }
}
layer {
  name: "conv3_1"
  type: "Convolution"
  bottom: "pool2"
  top: "conv3_1"
  param {
    lr_mult: 0
  }
  param {
    lr_mult: 0
  }
  convolution_param {
    num_output: 256
    pad: 1
    kernel_size: 3
  }
}
layer {
  name: "relu3_1"
  type: "ReLU"
  bottom: "conv3_1"
  top: "conv3_1"
}
layer {
  name: "conv3_2"
  type: "Convolution"
  bottom: "conv3_1"
  top: "conv3_2"
  param {
    lr_mult: 0
  }
  param {
    lr_mult: 0
  }
  convolution_param {
    num_output: 256
    pad: 1
    kernel_size: 3
  }
}
layer {
  name: "relu3_2"
  type: "ReLU"
  bottom: "conv3_2"
  top: "conv3_2"
}
layer {
  name: "conv3_3"
  type: "Convolution"
  bottom: "conv3_2"
  top: "conv3_3"
  param {
    lr_mult: 0
  }
  param {
    lr_mult: 0
  }
  convolution_param {
    num_output: 256
    pad: 1
    kernel_size: 3
  }
}
layer {
  name: "relu3_3"
  type: "ReLU"
  bottom: "conv3_3"
  top: "conv3_3"
}
layer {
  name: "pool3"
  type: "Pooling"
  bottom: "conv3_3"
  top: "pool3"
  pooling_param {
    pool: MAX
    kernel_size: 2
    stride: 2
  }
}
layer {
  name: "conv4_1"
  type: "Convolution"
  bottom: "pool3"
  top: "conv4_1"
  param {
    lr_mult: 0
  }
  param {
    lr_mult: 0
  }
  convolution_param {
    num_output: 512
    pad: 1
    kernel_size: 3
  }
}
layer {
  name: "relu4_1"
  type: "ReLU"
  bottom: "conv4_1"
  top: "conv4_1"
}
layer {
  name: "conv4_2"
  type: "Convolution"
  bottom: "conv4_1"
  top: "conv4_2"
  param {
    lr_mult: 0
  }
  param {
    lr_mult: 0
  }
  convolution_param {
    num_output: 512
    pad: 1
    kernel_size: 3
  }
}
layer {
  name: "relu4_2"
  type: "ReLU"
  bottom: "conv4_2"
  top: "conv4_2"
}
layer {
  name: "conv4_3"
  type: "Convolution"
  bottom: "conv4_2"
  top: "conv4_3"
  param {
    lr_mult: 0
  }
  param {
    lr_mult: 0
  }
  convolution_param {
    num_output: 512
    pad: 1
    kernel_size: 3
  }
}
layer {
  name: "relu4_3"
  type: "ReLU"
  bottom: "conv4_3"
  top: "conv4_3"
}
layer {
  name: "pool4"
  type: "Pooling"
  bottom: "conv4_3"
  top: "pool4"
  pooling_param {
    pool: MAX
    kernel_size: 2
    stride: 2
  }
}
layer {
  name: "conv5_1"
  type: "Convolution"
  bottom: "pool4"
  top: "conv5_1"
  param {
    lr_mult: 0
  }
  param {
    lr_mult: 0
  }
  convolution_param {
    num_output: 512
    pad: 1
    kernel_size: 3
  }
}
layer {
  name: "relu5_1"
  type: "ReLU"
  bottom: "conv5_1"
  top: "conv5_1"
}
layer {
  name: "conv5_2"
  type: "Convolution"
  bottom: "conv5_1"
  top: "conv5_2"
  param {
    lr_mult: 0
  }
  param {
    lr_mult: 0
  }
  convolution_param {
    num_output: 512
    pad: 1
    kernel_size: 3
  }
}
layer {
  name: "relu5_2"
  type: "ReLU"
  bottom: "conv5_2"
  top: "conv5_2"
}
layer {
  name: "conv5_3"
  type: "Convolution"
  bottom: "conv5_2"
  top: "conv5_3"
  param {
    lr_mult: 0
  }
  param {
    lr_mult: 0
  }
  convolution_param {
    num_output: 512
    pad: 1
    kernel_size: 3
  }
}
layer {
  name: "relu5_3"
  type: "ReLU"
  bottom: "conv5_3"
  top: "conv5_3"
}
layer {
  name: "pool5"
  type: "Pooling"
  bottom: "conv5_3"
  top: "pool5"
  pooling_param {
    pool: MAX
    kernel_size: 2
    stride: 2
  }
}
layer {
  name: "fc6"
  type: "InnerProduct"
  bottom: "pool5"
  top: "fc6"
  param {
    lr_mult: 0
  }
  param {
    lr_mult: 0
  }
  inner_product_param {
    num_output: 4096
  }
}
layer {
  name: "relu6"
  type: "ReLU"
  bottom: "fc6"
  top: "fc6"
}
layer {
  name: "drop6"
  type: "Dropout"
  bottom: "fc6"
  top: "fc6"
  dropout_param {
    dropout_ratio: 0.5
  }
}
layer {
  name: "fc7"
  type: "InnerProduct"
  bottom: "fc6"
  top: "fc7"
  param {
    lr_mult: 0
  }
  param {
    lr_mult: 0
  }
  inner_product_param {
    num_output: 4096
  }
}
layer {
  name: "relu7"
  type: "ReLU"
  bottom: "fc7"
  top: "fc7"
}
layer {
  name: "drop7"
  type: "Dropout"
  bottom: "fc7"
  top: "fc7"
  dropout_param {
    dropout_ratio: 0.5
  }
}
layer {
  name: "fc8"
  type: "InnerProduct"
  bottom: "fc7"
  top: "fc8"
  param {
    lr_mult: 0
  }
  param {
    lr_mult: 0
  }
  inner_product_param {
    num_output: 1000
  }
}
layer {
  name: "loss"
  type: "SoftmaxWithLoss"
  bottom: "fc8"
  bottom: "label"
  top: "loss/loss"
}
I0301 05:43:12.455695    47 layer_factory.hpp:77] Creating layer data
I0301 05:43:16.056063    47 db_lmdb.cpp:35] Opened lmdb imagenet_train_0.5
I0301 05:43:20.858153    47 net.cpp:84] Creating Layer data
I0301 05:43:20.858199    47 net.cpp:380] data -> data
I0301 05:43:20.858240    47 net.cpp:380] data -> label
I0301 05:43:20.860822    47 data_layer.cpp:46] output data size: 75,3,224,224
I0301 05:43:20.987462    47 net.cpp:122] Setting up data
I0301 05:43:20.987499    47 net.cpp:129] Top shape: 75 3 224 224 (11289600)
I0301 05:43:20.987507    47 net.cpp:129] Top shape: 75 (75)
I0301 05:43:20.987543    47 net.cpp:137] Memory required for data: 45158700
I0301 05:43:20.987561    47 layer_factory.hpp:77] Creating layer conv1_1
I0301 05:43:20.987592    47 net.cpp:84] Creating Layer conv1_1
I0301 05:43:20.987599    47 net.cpp:406] conv1_1 <- data
I0301 05:43:20.987619    47 net.cpp:380] conv1_1 -> conv1_1
I0301 05:43:23.369714    47 net.cpp:122] Setting up conv1_1
I0301 05:43:23.369796    47 net.cpp:129] Top shape: 75 64 224 224 (240844800)
I0301 05:43:23.369802    47 net.cpp:137] Memory required for data: 1008537900
I0301 05:43:23.369861    47 layer_factory.hpp:77] Creating layer relu1_1
I0301 05:43:23.369890    47 net.cpp:84] Creating Layer relu1_1
I0301 05:43:23.369897    47 net.cpp:406] relu1_1 <- conv1_1
I0301 05:43:23.369906    47 net.cpp:367] relu1_1 -> conv1_1 (in-place)
I0301 05:43:23.370683    47 net.cpp:122] Setting up relu1_1
I0301 05:43:23.370702    47 net.cpp:129] Top shape: 75 64 224 224 (240844800)
I0301 05:43:23.370705    47 net.cpp:137] Memory required for data: 1971917100
I0301 05:43:23.370710    47 layer_factory.hpp:77] Creating layer conv1_2
I0301 05:43:23.370730    47 net.cpp:84] Creating Layer conv1_2
I0301 05:43:23.370736    47 net.cpp:406] conv1_2 <- conv1_1
I0301 05:43:23.370746    47 net.cpp:380] conv1_2 -> conv1_2
I0301 05:43:23.381280    47 net.cpp:122] Setting up conv1_2
I0301 05:43:23.381302    47 net.cpp:129] Top shape: 75 64 224 224 (240844800)
I0301 05:43:23.381309    47 net.cpp:137] Memory required for data: 2935296300
I0301 05:43:23.381322    47 layer_factory.hpp:77] Creating layer relu1_2
I0301 05:43:23.381342    47 net.cpp:84] Creating Layer relu1_2
I0301 05:43:23.381348    47 net.cpp:406] relu1_2 <- conv1_2
I0301 05:43:23.381357    47 net.cpp:367] relu1_2 -> conv1_2 (in-place)
I0301 05:43:23.381909    47 net.cpp:122] Setting up relu1_2
I0301 05:43:23.381924    47 net.cpp:129] Top shape: 75 64 224 224 (240844800)
I0301 05:43:23.381929    47 net.cpp:137] Memory required for data: 3898675500
I0301 05:43:23.381935    47 layer_factory.hpp:77] Creating layer pool1
I0301 05:43:23.381947    47 net.cpp:84] Creating Layer pool1
I0301 05:43:23.381952    47 net.cpp:406] pool1 <- conv1_2
I0301 05:43:23.381959    47 net.cpp:380] pool1 -> pool1
I0301 05:43:23.382038    47 net.cpp:122] Setting up pool1
I0301 05:43:23.382051    47 net.cpp:129] Top shape: 75 64 112 112 (60211200)
I0301 05:43:23.382055    47 net.cpp:137] Memory required for data: 4139520300
I0301 05:43:23.382061    47 layer_factory.hpp:77] Creating layer conv2_1
I0301 05:43:23.382071    47 net.cpp:84] Creating Layer conv2_1
I0301 05:43:23.382076    47 net.cpp:406] conv2_1 <- pool1
I0301 05:43:23.382084    47 net.cpp:380] conv2_1 -> conv2_1
I0301 05:43:23.387967    47 net.cpp:122] Setting up conv2_1
I0301 05:43:23.387989    47 net.cpp:129] Top shape: 75 128 112 112 (120422400)
I0301 05:43:23.387995    47 net.cpp:137] Memory required for data: 4621209900
I0301 05:43:23.388010    47 layer_factory.hpp:77] Creating layer relu2_1
I0301 05:43:23.388020    47 net.cpp:84] Creating Layer relu2_1
I0301 05:43:23.388025    47 net.cpp:406] relu2_1 <- conv2_1
I0301 05:43:23.388032    47 net.cpp:367] relu2_1 -> conv2_1 (in-place)
I0301 05:43:23.388944    47 net.cpp:122] Setting up relu2_1
I0301 05:43:23.388963    47 net.cpp:129] Top shape: 75 128 112 112 (120422400)
I0301 05:43:23.388969    47 net.cpp:137] Memory required for data: 5102899500
I0301 05:43:23.388974    47 layer_factory.hpp:77] Creating layer conv2_2
I0301 05:43:23.388998    47 net.cpp:84] Creating Layer conv2_2
I0301 05:43:23.389003    47 net.cpp:406] conv2_2 <- conv2_1
I0301 05:43:23.389014    47 net.cpp:380] conv2_2 -> conv2_2
I0301 05:43:23.391899    47 net.cpp:122] Setting up conv2_2
I0301 05:43:23.391919    47 net.cpp:129] Top shape: 75 128 112 112 (120422400)
I0301 05:43:23.391924    47 net.cpp:137] Memory required for data: 5584589100
I0301 05:43:23.391937    47 layer_factory.hpp:77] Creating layer relu2_2
I0301 05:43:23.391945    47 net.cpp:84] Creating Layer relu2_2
I0301 05:43:23.391950    47 net.cpp:406] relu2_2 <- conv2_2
I0301 05:43:23.391957    47 net.cpp:367] relu2_2 -> conv2_2 (in-place)
I0301 05:43:23.392534    47 net.cpp:122] Setting up relu2_2
I0301 05:43:23.392550    47 net.cpp:129] Top shape: 75 128 112 112 (120422400)
I0301 05:43:23.392554    47 net.cpp:137] Memory required for data: 6066278700
I0301 05:43:23.392560    47 layer_factory.hpp:77] Creating layer pool2
I0301 05:43:23.392570    47 net.cpp:84] Creating Layer pool2
I0301 05:43:23.392575    47 net.cpp:406] pool2 <- conv2_2
I0301 05:43:23.392581    47 net.cpp:380] pool2 -> pool2
I0301 05:43:23.392642    47 net.cpp:122] Setting up pool2
I0301 05:43:23.392652    47 net.cpp:129] Top shape: 75 128 56 56 (30105600)
I0301 05:43:23.392657    47 net.cpp:137] Memory required for data: 6186701100
I0301 05:43:23.392660    47 layer_factory.hpp:77] Creating layer conv3_1
I0301 05:43:23.392671    47 net.cpp:84] Creating Layer conv3_1
I0301 05:43:23.392678    47 net.cpp:406] conv3_1 <- pool2
I0301 05:43:23.392685    47 net.cpp:380] conv3_1 -> conv3_1
I0301 05:43:23.395596    47 net.cpp:122] Setting up conv3_1
I0301 05:43:23.395618    47 net.cpp:129] Top shape: 75 256 56 56 (60211200)
I0301 05:43:23.395624    47 net.cpp:137] Memory required for data: 6427545900
I0301 05:43:23.395648    47 layer_factory.hpp:77] Creating layer relu3_1
I0301 05:43:23.395658    47 net.cpp:84] Creating Layer relu3_1
I0301 05:43:23.395663    47 net.cpp:406] relu3_1 <- conv3_1
I0301 05:43:23.395673    47 net.cpp:367] relu3_1 -> conv3_1 (in-place)
I0301 05:43:23.396261    47 net.cpp:122] Setting up relu3_1
I0301 05:43:23.396277    47 net.cpp:129] Top shape: 75 256 56 56 (60211200)
I0301 05:43:23.396282    47 net.cpp:137] Memory required for data: 6668390700
I0301 05:43:23.396287    47 layer_factory.hpp:77] Creating layer conv3_2
I0301 05:43:23.396299    47 net.cpp:84] Creating Layer conv3_2
I0301 05:43:23.396304    47 net.cpp:406] conv3_2 <- conv3_1
I0301 05:43:23.396314    47 net.cpp:380] conv3_2 -> conv3_2
I0301 05:43:23.400871    47 net.cpp:122] Setting up conv3_2
I0301 05:43:23.400892    47 net.cpp:129] Top shape: 75 256 56 56 (60211200)
I0301 05:43:23.400897    47 net.cpp:137] Memory required for data: 6909235500
I0301 05:43:23.400907    47 layer_factory.hpp:77] Creating layer relu3_2
I0301 05:43:23.400916    47 net.cpp:84] Creating Layer relu3_2
I0301 05:43:23.400921    47 net.cpp:406] relu3_2 <- conv3_2
I0301 05:43:23.400931    47 net.cpp:367] relu3_2 -> conv3_2 (in-place)
I0301 05:43:23.401938    47 net.cpp:122] Setting up relu3_2
I0301 05:43:23.401957    47 net.cpp:129] Top shape: 75 256 56 56 (60211200)
I0301 05:43:23.401962    47 net.cpp:137] Memory required for data: 7150080300
I0301 05:43:23.401968    47 layer_factory.hpp:77] Creating layer conv3_3
I0301 05:43:23.401980    47 net.cpp:84] Creating Layer conv3_3
I0301 05:43:23.401986    47 net.cpp:406] conv3_3 <- conv3_2
I0301 05:43:23.401994    47 net.cpp:380] conv3_3 -> conv3_3
I0301 05:43:23.406916    47 net.cpp:122] Setting up conv3_3
I0301 05:43:23.406936    47 net.cpp:129] Top shape: 75 256 56 56 (60211200)
I0301 05:43:23.406942    47 net.cpp:137] Memory required for data: 7390925100
I0301 05:43:23.406961    47 layer_factory.hpp:77] Creating layer relu3_3
I0301 05:43:23.406976    47 net.cpp:84] Creating Layer relu3_3
I0301 05:43:23.406981    47 net.cpp:406] relu3_3 <- conv3_3
I0301 05:43:23.406991    47 net.cpp:367] relu3_3 -> conv3_3 (in-place)
I0301 05:43:23.407649    47 net.cpp:122] Setting up relu3_3
I0301 05:43:23.407663    47 net.cpp:129] Top shape: 75 256 56 56 (60211200)
I0301 05:43:23.407667    47 net.cpp:137] Memory required for data: 7631769900
I0301 05:43:23.407673    47 layer_factory.hpp:77] Creating layer pool3
I0301 05:43:23.407683    47 net.cpp:84] Creating Layer pool3
I0301 05:43:23.407688    47 net.cpp:406] pool3 <- conv3_3
I0301 05:43:23.407696    47 net.cpp:380] pool3 -> pool3
I0301 05:43:23.407764    47 net.cpp:122] Setting up pool3
I0301 05:43:23.407773    47 net.cpp:129] Top shape: 75 256 28 28 (15052800)
I0301 05:43:23.407778    47 net.cpp:137] Memory required for data: 7691981100
I0301 05:43:23.407783    47 layer_factory.hpp:77] Creating layer conv4_1
I0301 05:43:23.407811    47 net.cpp:84] Creating Layer conv4_1
I0301 05:43:23.407815    47 net.cpp:406] conv4_1 <- pool3
I0301 05:43:23.407825    47 net.cpp:380] conv4_1 -> conv4_1
I0301 05:43:23.415374    47 net.cpp:122] Setting up conv4_1
I0301 05:43:23.415397    47 net.cpp:129] Top shape: 75 512 28 28 (30105600)
I0301 05:43:23.415402    47 net.cpp:137] Memory required for data: 7812403500
I0301 05:43:23.415413    47 layer_factory.hpp:77] Creating layer relu4_1
I0301 05:43:23.415422    47 net.cpp:84] Creating Layer relu4_1
I0301 05:43:23.415428    47 net.cpp:406] relu4_1 <- conv4_1
I0301 05:43:23.415438    47 net.cpp:367] relu4_1 -> conv4_1 (in-place)
I0301 05:43:23.416106    47 net.cpp:122] Setting up relu4_1
I0301 05:43:23.416121    47 net.cpp:129] Top shape: 75 512 28 28 (30105600)
I0301 05:43:23.416127    47 net.cpp:137] Memory required for data: 7932825900
I0301 05:43:23.416141    47 layer_factory.hpp:77] Creating layer conv4_2
I0301 05:43:23.416153    47 net.cpp:84] Creating Layer conv4_2
I0301 05:43:23.416158    47 net.cpp:406] conv4_2 <- conv4_1
I0301 05:43:23.416169    47 net.cpp:380] conv4_2 -> conv4_2
I0301 05:43:23.424593    47 net.cpp:122] Setting up conv4_2
I0301 05:43:23.424616    47 net.cpp:129] Top shape: 75 512 28 28 (30105600)
I0301 05:43:23.424621    47 net.cpp:137] Memory required for data: 8053248300
I0301 05:43:23.424641    47 layer_factory.hpp:77] Creating layer relu4_2
I0301 05:43:23.424650    47 net.cpp:84] Creating Layer relu4_2
I0301 05:43:23.424655    47 net.cpp:406] relu4_2 <- conv4_2
I0301 05:43:23.424662    47 net.cpp:367] relu4_2 -> conv4_2 (in-place)
I0301 05:43:23.425315    47 net.cpp:122] Setting up relu4_2
I0301 05:43:23.425330    47 net.cpp:129] Top shape: 75 512 28 28 (30105600)
I0301 05:43:23.425334    47 net.cpp:137] Memory required for data: 8173670700
I0301 05:43:23.425339    47 layer_factory.hpp:77] Creating layer conv4_3
I0301 05:43:23.425354    47 net.cpp:84] Creating Layer conv4_3
I0301 05:43:23.425359    47 net.cpp:406] conv4_3 <- conv4_2
I0301 05:43:23.425369    47 net.cpp:380] conv4_3 -> conv4_3
I0301 05:43:23.433755    47 net.cpp:122] Setting up conv4_3
I0301 05:43:23.433779    47 net.cpp:129] Top shape: 75 512 28 28 (30105600)
I0301 05:43:23.433784    47 net.cpp:137] Memory required for data: 8294093100
I0301 05:43:23.433796    47 layer_factory.hpp:77] Creating layer relu4_3
I0301 05:43:23.433822    47 net.cpp:84] Creating Layer relu4_3
I0301 05:43:23.433828    47 net.cpp:406] relu4_3 <- conv4_3
I0301 05:43:23.433836    47 net.cpp:367] relu4_3 -> conv4_3 (in-place)
I0301 05:43:23.434887    47 net.cpp:122] Setting up relu4_3
I0301 05:43:23.434908    47 net.cpp:129] Top shape: 75 512 28 28 (30105600)
I0301 05:43:23.434914    47 net.cpp:137] Memory required for data: 8414515500
I0301 05:43:23.434919    47 layer_factory.hpp:77] Creating layer pool4
I0301 05:43:23.434928    47 net.cpp:84] Creating Layer pool4
I0301 05:43:23.434933    47 net.cpp:406] pool4 <- conv4_3
I0301 05:43:23.434942    47 net.cpp:380] pool4 -> pool4
I0301 05:43:23.435010    47 net.cpp:122] Setting up pool4
I0301 05:43:23.435019    47 net.cpp:129] Top shape: 75 512 14 14 (7526400)
I0301 05:43:23.435024    47 net.cpp:137] Memory required for data: 8444621100
I0301 05:43:23.435029    47 layer_factory.hpp:77] Creating layer conv5_1
I0301 05:43:23.435040    47 net.cpp:84] Creating Layer conv5_1
I0301 05:43:23.435045    47 net.cpp:406] conv5_1 <- pool4
I0301 05:43:23.435055    47 net.cpp:380] conv5_1 -> conv5_1
I0301 05:43:23.443429    47 net.cpp:122] Setting up conv5_1
I0301 05:43:23.443454    47 net.cpp:129] Top shape: 75 512 14 14 (7526400)
I0301 05:43:23.443459    47 net.cpp:137] Memory required for data: 8474726700
I0301 05:43:23.443470    47 layer_factory.hpp:77] Creating layer relu5_1
I0301 05:43:23.443480    47 net.cpp:84] Creating Layer relu5_1
I0301 05:43:23.443485    47 net.cpp:406] relu5_1 <- conv5_1
I0301 05:43:23.443495    47 net.cpp:367] relu5_1 -> conv5_1 (in-place)
I0301 05:43:23.444157    47 net.cpp:122] Setting up relu5_1
I0301 05:43:23.444172    47 net.cpp:129] Top shape: 75 512 14 14 (7526400)
I0301 05:43:23.444198    47 net.cpp:137] Memory required for data: 8504832300
I0301 05:43:23.444203    47 layer_factory.hpp:77] Creating layer conv5_2
I0301 05:43:23.444227    47 net.cpp:84] Creating Layer conv5_2
I0301 05:43:23.444233    47 net.cpp:406] conv5_2 <- conv5_1
I0301 05:43:23.444243    47 net.cpp:380] conv5_2 -> conv5_2
I0301 05:43:23.452661    47 net.cpp:122] Setting up conv5_2
I0301 05:43:23.452687    47 net.cpp:129] Top shape: 75 512 14 14 (7526400)
I0301 05:43:23.452692    47 net.cpp:137] Memory required for data: 8534937900
I0301 05:43:23.452703    47 layer_factory.hpp:77] Creating layer relu5_2
I0301 05:43:23.452713    47 net.cpp:84] Creating Layer relu5_2
I0301 05:43:23.452718    47 net.cpp:406] relu5_2 <- conv5_2
I0301 05:43:23.452726    47 net.cpp:367] relu5_2 -> conv5_2 (in-place)
I0301 05:43:23.453385    47 net.cpp:122] Setting up relu5_2
I0301 05:43:23.453400    47 net.cpp:129] Top shape: 75 512 14 14 (7526400)
I0301 05:43:23.453405    47 net.cpp:137] Memory required for data: 8565043500
I0301 05:43:23.453411    47 layer_factory.hpp:77] Creating layer conv5_3
I0301 05:43:23.453424    47 net.cpp:84] Creating Layer conv5_3
I0301 05:43:23.453429    47 net.cpp:406] conv5_3 <- conv5_2
I0301 05:43:23.453438    47 net.cpp:380] conv5_3 -> conv5_3
I0301 05:43:23.461864    47 net.cpp:122] Setting up conv5_3
I0301 05:43:23.461887    47 net.cpp:129] Top shape: 75 512 14 14 (7526400)
I0301 05:43:23.461892    47 net.cpp:137] Memory required for data: 8595149100
I0301 05:43:23.461904    47 layer_factory.hpp:77] Creating layer relu5_3
I0301 05:43:23.461913    47 net.cpp:84] Creating Layer relu5_3
I0301 05:43:23.461918    47 net.cpp:406] relu5_3 <- conv5_3
I0301 05:43:23.461928    47 net.cpp:367] relu5_3 -> conv5_3 (in-place)
I0301 05:43:23.463022    47 net.cpp:122] Setting up relu5_3
I0301 05:43:23.463042    47 net.cpp:129] Top shape: 75 512 14 14 (7526400)
I0301 05:43:23.463047    47 net.cpp:137] Memory required for data: 8625254700
I0301 05:43:23.463065    47 layer_factory.hpp:77] Creating layer pool5
I0301 05:43:23.463075    47 net.cpp:84] Creating Layer pool5
I0301 05:43:23.463080    47 net.cpp:406] pool5 <- conv5_3
I0301 05:43:23.463091    47 net.cpp:380] pool5 -> pool5
I0301 05:43:23.463160    47 net.cpp:122] Setting up pool5
I0301 05:43:23.463171    47 net.cpp:129] Top shape: 75 512 7 7 (1881600)
I0301 05:43:23.463176    47 net.cpp:137] Memory required for data: 8632781100
I0301 05:43:23.463181    47 layer_factory.hpp:77] Creating layer fc6
I0301 05:43:23.463201    47 net.cpp:84] Creating Layer fc6
I0301 05:43:23.463205    47 net.cpp:406] fc6 <- pool5
I0301 05:43:23.463214    47 net.cpp:380] fc6 -> fc6
I0301 05:43:23.758510    47 net.cpp:122] Setting up fc6
I0301 05:43:23.758556    47 net.cpp:129] Top shape: 75 4096 (307200)
I0301 05:43:23.758561    47 net.cpp:137] Memory required for data: 8634009900
I0301 05:43:23.758580    47 layer_factory.hpp:77] Creating layer relu6
I0301 05:43:23.758594    47 net.cpp:84] Creating Layer relu6
I0301 05:43:23.758600    47 net.cpp:406] relu6 <- fc6
I0301 05:43:23.758611    47 net.cpp:367] relu6 -> fc6 (in-place)
I0301 05:43:23.759393    47 net.cpp:122] Setting up relu6
I0301 05:43:23.759412    47 net.cpp:129] Top shape: 75 4096 (307200)
I0301 05:43:23.759415    47 net.cpp:137] Memory required for data: 8635238700
I0301 05:43:23.759421    47 layer_factory.hpp:77] Creating layer drop6
I0301 05:43:23.759435    47 net.cpp:84] Creating Layer drop6
I0301 05:43:23.759439    47 net.cpp:406] drop6 <- fc6
I0301 05:43:23.759446    47 net.cpp:367] drop6 -> fc6 (in-place)
I0301 05:43:23.759491    47 net.cpp:122] Setting up drop6
I0301 05:43:23.759500    47 net.cpp:129] Top shape: 75 4096 (307200)
I0301 05:43:23.759505    47 net.cpp:137] Memory required for data: 8636467500
I0301 05:43:23.759510    47 layer_factory.hpp:77] Creating layer fc7
I0301 05:43:23.759532    47 net.cpp:84] Creating Layer fc7
I0301 05:43:23.759537    47 net.cpp:406] fc7 <- fc6
I0301 05:43:23.759546    47 net.cpp:380] fc7 -> fc7
I0301 05:43:23.808691    47 net.cpp:122] Setting up fc7
I0301 05:43:23.808770    47 net.cpp:129] Top shape: 75 4096 (307200)
I0301 05:43:23.808776    47 net.cpp:137] Memory required for data: 8637696300
I0301 05:43:23.808794    47 layer_factory.hpp:77] Creating layer relu7
I0301 05:43:23.808811    47 net.cpp:84] Creating Layer relu7
I0301 05:43:23.808818    47 net.cpp:406] relu7 <- fc7
I0301 05:43:23.808828    47 net.cpp:367] relu7 -> fc7 (in-place)
I0301 05:43:23.809604    47 net.cpp:122] Setting up relu7
I0301 05:43:23.809619    47 net.cpp:129] Top shape: 75 4096 (307200)
I0301 05:43:23.809623    47 net.cpp:137] Memory required for data: 8638925100
I0301 05:43:23.809629    47 layer_factory.hpp:77] Creating layer drop7
I0301 05:43:23.809640    47 net.cpp:84] Creating Layer drop7
I0301 05:43:23.809645    47 net.cpp:406] drop7 <- fc7
I0301 05:43:23.809653    47 net.cpp:367] drop7 -> fc7 (in-place)
I0301 05:43:23.809695    47 net.cpp:122] Setting up drop7
I0301 05:43:23.809702    47 net.cpp:129] Top shape: 75 4096 (307200)
I0301 05:43:23.809706    47 net.cpp:137] Memory required for data: 8640153900
I0301 05:43:23.809710    47 layer_factory.hpp:77] Creating layer fc8
I0301 05:43:23.809720    47 net.cpp:84] Creating Layer fc8
I0301 05:43:23.809725    47 net.cpp:406] fc8 <- fc7
I0301 05:43:23.809734    47 net.cpp:380] fc8 -> fc8
I0301 05:43:23.820112    47 net.cpp:122] Setting up fc8
I0301 05:43:23.820147    47 net.cpp:129] Top shape: 75 1000 (75000)
I0301 05:43:23.820152    47 net.cpp:137] Memory required for data: 8640453900
I0301 05:43:23.820166    47 layer_factory.hpp:77] Creating layer loss
I0301 05:43:23.820184    47 net.cpp:84] Creating Layer loss
I0301 05:43:23.820190    47 net.cpp:406] loss <- fc8
I0301 05:43:23.820197    47 net.cpp:406] loss <- label
I0301 05:43:23.820209    47 net.cpp:380] loss -> loss/loss
I0301 05:43:23.820226    47 layer_factory.hpp:77] Creating layer loss
…
I0301 05:43:23.826074    47 net.cpp:294] The NetState phase (1) differed from the phase (0) specified by a rule in layer data
I0301 05:43:23.826354    47 net.cpp:51] Initializing net from parameters: 
name: "VGG_ILSVRC_16_layers"
state {
  phase: TEST
}
layer {
  name: "data"
  type: "Data"
  top: "data"
  top: "label"
  include {
    phase: TEST
  }
  transform_param {
    mirror: false
    crop_size: 224
    mean_value: 104
    mean_value: 117
    mean_value: 123
  }
  data_param {
    source: "imagenet_lmdb_val0.5"
    batch_size: 20
    backend: LMDB
  }
}
layer {
  name: "conv1_1"
  type: "Convolution"
  bottom: "data"
  top: "conv1_1"
  param {
    lr_mult: 0
  }
  param {
    lr_mult: 0
  }
  convolution_param {
    num_output: 64
    pad: 1
    kernel_size: 3
  }
}
layer {
  name: "relu1_1"
  type: "ReLU"
  bottom: "conv1_1"
  top: "conv1_1"
}
layer {
  name: "conv1_2"
  type: "Convolution"
  bottom: "conv1_1"
  top: "conv1_2"
  param {
    lr_mult: 0
  }
  param {
    lr_mult: 0
  }
  convolution_param {
    num_output: 64
    pad: 1
    kernel_size: 3
  }
}
layer {
  name: "relu1_2"
  type: "ReLU"
  bottom: "conv1_2"
  top: "conv1_2"
}
layer {
  name: "pool1"
  type: "Pooling"
  bottom: "conv1_2"
  top: "pool1"
  pooling_param {
    pool: MAX
    kernel_size: 2
    stride: 2
  }
}
layer {
  name: "conv2_1"
  type: "Convolution"
  bottom: "pool1"
  top: "conv2_1"
  param {
    lr_mult: 0
  }
  param {
    lr_mult: 0
  }
  convolution_param {
    num_output: 128
    pad: 1
    kernel_size: 3
  }
}
layer {
  name: "relu2_1"
  type: "ReLU"
  bottom: "conv2_1"
  top: "conv2_1"
}
layer {
  name: "conv2_2"
  type: "Convolution"
  bottom: "conv2_1"
  top: "conv2_2"
  param {
    lr_mult: 0
  }
  param {
    lr_mult: 0
  }
  convolution_param {
    num_output: 128
    pad: 1
    kernel_size: 3
  }
}
layer {
  name: "relu2_2"
  type: "ReLU"
  bottom: "conv2_2"
  top: "conv2_2"
}
layer {
  name: "pool2"
  type: "Pooling"
  bottom: "conv2_2"
  top: "pool2"
  pooling_param {
    pool: MAX
    kernel_size: 2
    stride: 2
  }
}
layer {
  name: "conv3_1"
  type: "Convolution"
  bottom: "pool2"
  top: "conv3_1"
  param {
    lr_mult: 0
  }
  param {
    lr_mult: 0
  }
  convolution_param {
    num_output: 256
    pad: 1
    kernel_size: 3
  }
}
layer {
  name: "relu3_1"
  type: "ReLU"
  bottom: "conv3_1"
  top: "conv3_1"
}
layer {
  name: "conv3_2"
  type: "Convolution"
  bottom: "conv3_1"
  top: "conv3_2"
  param {
    lr_mult: 0
  }
  param {
    lr_mult: 0
  }
  convolution_param {
    num_output: 256
    pad: 1
    kernel_size: 3
  }
}
layer {
  name: "relu3_2"
  type: "ReLU"
  bottom: "conv3_2"
  top: "conv3_2"
}
layer {
  name: "conv3_3"
  type: "Convolution"
  bottom: "conv3_2"
  top: "conv3_3"
  param {
    lr_mult: 0
  }
  param {
    lr_mult: 0
  }
  convolution_param {
    num_output: 256
    pad: 1
    kernel_size: 3
  }
}
layer {
  name: "relu3_3"
  type: "ReLU"
  bottom: "conv3_3"
  top: "conv3_3"
}
layer {
  name: "pool3"
  type: "Pooling"
  bottom: "conv3_3"
  top: "pool3"
  pooling_param {
    pool: MAX
    kernel_size: 2
    stride: 2
  }
}
layer {
  name: "conv4_1"
  type: "Convolution"
  bottom: "pool3"
  top: "conv4_1"
  param {
    lr_mult: 0
  }
  param {
    lr_mult: 0
  }
  convolution_param {
    num_output: 512
    pad: 1
    kernel_size: 3
  }
}
layer {
  name: "relu4_1"
  type: "ReLU"
  bottom: "conv4_1"
  top: "conv4_1"
}
layer {
  name: "conv4_2"
  type: "Convolution"
  bottom: "conv4_1"
  top: "conv4_2"
  param {
    lr_mult: 0
  }
  param {
    lr_mult: 0
  }
  convolution_param {
    num_output: 512
    pad: 1
    kernel_size: 3
  }
}
layer {
  name: "relu4_2"
  type: "ReLU"
  bottom: "conv4_2"
  top: "conv4_2"
}
layer {
  name: "conv4_3"
  type: "Convolution"
  bottom: "conv4_2"
  top: "conv4_3"
  param {
    lr_mult: 0
  }
  param {
    lr_mult: 0
  }
  convolution_param {
    num_output: 512
    pad: 1
    kernel_size: 3
  }
}
layer {
  name: "relu4_3"
  type: "ReLU"
  bottom: "conv4_3"
  top: "conv4_3"
}
layer {
  name: "pool4"
  type: "Pooling"
  bottom: "conv4_3"
  top: "pool4"
  pooling_param {
    pool: MAX
    kernel_size: 2
    stride: 2
  }
}
layer {
  name: "conv5_1"
  type: "Convolution"
  bottom: "pool4"
  top: "conv5_1"
  param {
    lr_mult: 0
  }
  param {
    lr_mult: 0
  }
  convolution_param {
    num_output: 512
    pad: 1
    kernel_size: 3
  }
}
layer {
  name: "relu5_1"
  type: "ReLU"
  bottom: "conv5_1"
  top: "conv5_1"
}
layer {
  name: "conv5_2"
  type: "Convolution"
  bottom: "conv5_1"
  top: "conv5_2"
  param {
    lr_mult: 0
  }
  param {
    lr_mult: 0
  }
  convolution_param {
    num_output: 512
    pad: 1
    kernel_size: 3
  }
}
layer {
  name: "relu5_2"
  type: "ReLU"
  bottom: "conv5_2"
  top: "conv5_2"
}
layer {
  name: "conv5_3"
  type: "Convolution"
  bottom: "conv5_2"
  top: "conv5_3"
  param {
    lr_mult: 0
  }
  param {
    lr_mult: 0
  }
  convolution_param {
    num_output: 512
    pad: 1
    kernel_size: 3
  }
}
layer {
  name: "relu5_3"
  type: "ReLU"
  bottom: "conv5_3"
  top: "conv5_3"
}
layer {
  name: "pool5"
  type: "Pooling"
  bottom: "conv5_3"
  top: "pool5"
  pooling_param {
    pool: MAX
    kernel_size: 2
    stride: 2
  }
}
layer {
  name: "fc6"
  type: "InnerProduct"
  bottom: "pool5"
  top: "fc6"
  param {
    lr_mult: 0
  }
  param {
    lr_mult: 0
  }
  inner_product_param {
    num_output: 4096
  }
}
layer {
  name: "relu6"
  type: "ReLU"
  bottom: "fc6"
  top: "fc6"
}
layer {
  name: "drop6"
  type: "Dropout"
  bottom: "fc6"
  top: "fc6"
  dropout_param {
    dropout_ratio: 0.5
  }
}
layer {
  name: "fc7"
  type: "InnerProduct"
  bottom: "fc6"
  top: "fc7"
  param {
    lr_mult: 0
  }
  param {
    lr_mult: 0
  }
  inner_product_param {
    num_output: 4096
  }
}
layer {
  name: "relu7"
  type: "ReLU"
  bottom: "fc7"
  top: "fc7"
}
layer {
  name: "drop7"
  type: "Dropout"
  bottom: "fc7"
  top: "fc7"
  dropout_param {
    dropout_ratio: 0.5
  }
}
layer {
  name: "fc8"
  type: "InnerProduct"
  bottom: "fc7"
  top: "fc8"
  param {
    lr_mult: 0
  }
  param {
    lr_mult: 0
  }
  inner_product_param {
    num_output: 1000
  }
}
layer {
  name: "loss"
  type: "SoftmaxWithLoss"
  bottom: "fc8"
  bottom: "label"
  top: "loss/loss"
}
layer {
  name: "accuracy/top1"
  type: "Accuracy"
  bottom: "fc8"
  bottom: "label"
  top: "accuracy@1"
  include {
    phase: TEST
  }
  accuracy_param {
    top_k: 1
  }
}
layer {
  name: "accuracy/top5"
  type: "Accuracy"
  bottom: "fc8"
  bottom: "label"
  top: "accuracy@5"
  include {
    phase: TEST
  }
  accuracy_param {
    top_k: 5
  }
}
I0301 05:43:23.826583    47 layer_factory.hpp:77] Creating layer data
I0301 05:43:26.989745    47 db_lmdb.cpp:35] Opened lmdb imagenet_lmdb_val0.5
I0301 05:43:31.045141    47 net.cpp:84] Creating Layer data
I0301 05:43:31.045187    47 net.cpp:380] data -> data
I0301 05:43:31.045223    47 net.cpp:380] data -> label
I0301 05:43:31.046001    47 data_layer.cpp:46] output data size: 20,3,224,224
I0301 05:43:31.078485    47 net.cpp:122] Setting up data
I0301 05:43:31.078522    47 net.cpp:129] Top shape: 20 3 224 224 (3010560)
I0301 05:43:31.078531    47 net.cpp:129] Top shape: 20 (20)
I0301 05:43:31.078536    47 net.cpp:137] Memory required for data: 12042320
I0301 05:43:31.078544    47 layer_factory.hpp:77] Creating layer label_data_1_split
I0301 05:43:31.078577    47 net.cpp:84] Creating Layer label_data_1_split
I0301 05:43:31.078583    47 net.cpp:406] label_data_1_split <- label
I0301 05:43:31.078596    47 net.cpp:380] label_data_1_split -> label_data_1_split_0
I0301 05:43:31.078610    47 net.cpp:380] label_data_1_split -> label_data_1_split_1
I0301 05:43:31.078619    47 net.cpp:380] label_data_1_split -> label_data_1_split_2
I0301 05:43:31.078805    47 net.cpp:122] Setting up label_data_1_split
I0301 05:43:31.078819    47 net.cpp:129] Top shape: 20 (20)
I0301 05:43:31.078824    47 net.cpp:129] Top shape: 20 (20)
I0301 05:43:31.078830    47 net.cpp:129] Top shape: 20 (20)
I0301 05:43:31.078833    47 net.cpp:137] Memory required for data: 12042560
I0301 05:43:31.078838    47 layer_factory.hpp:77] Creating layer conv1_1
I0301 05:43:31.078857    47 net.cpp:84] Creating Layer conv1_1
I0301 05:43:31.078861    47 net.cpp:406] conv1_1 <- data
I0301 05:43:31.078869    47 net.cpp:380] conv1_1 -> conv1_1
I0301 05:43:31.082854    47 net.cpp:122] Setting up conv1_1
I0301 05:43:31.082875    47 net.cpp:129] Top shape: 20 64 224 224 (64225280)
I0301 05:43:31.082880    47 net.cpp:137] Memory required for data: 268943680
I0301 05:43:31.082895    47 layer_factory.hpp:77] Creating layer relu1_1
I0301 05:43:31.082908    47 net.cpp:84] Creating Layer relu1_1
I0301 05:43:31.082913    47 net.cpp:406] relu1_1 <- conv1_1
I0301 05:43:31.082921    47 net.cpp:367] relu1_1 -> conv1_1 (in-place)
I0301 05:43:31.083662    47 net.cpp:122] Setting up relu1_1
I0301 05:43:31.083680    47 net.cpp:129] Top shape: 20 64 224 224 (64225280)
I0301 05:43:31.083684    47 net.cpp:137] Memory required for data: 525844800
I0301 05:43:31.083689    47 layer_factory.hpp:77] Creating layer conv1_2
I0301 05:43:31.083703    47 net.cpp:84] Creating Layer conv1_2
I0301 05:43:31.083708    47 net.cpp:406] conv1_2 <- conv1_1
I0301 05:43:31.083715    47 net.cpp:380] conv1_2 -> conv1_2
I0301 05:43:31.087098    47 net.cpp:122] Setting up conv1_2
I0301 05:43:31.087121    47 net.cpp:129] Top shape: 20 64 224 224 (64225280)
I0301 05:43:31.087126    47 net.cpp:137] Memory required for data: 782745920
I0301 05:43:31.087141    47 layer_factory.hpp:77] Creating layer relu1_2
I0301 05:43:31.087149    47 net.cpp:84] Creating Layer relu1_2
I0301 05:43:31.087154    47 net.cpp:406] relu1_2 <- conv1_2
I0301 05:43:31.087164    47 net.cpp:367] relu1_2 -> conv1_2 (in-place)
I0301 05:43:31.087812    47 net.cpp:122] Setting up relu1_2
I0301 05:43:31.087826    47 net.cpp:129] Top shape: 20 64 224 224 (64225280)
I0301 05:43:31.087831    47 net.cpp:137] Memory required for data: 1039647040
I0301 05:43:31.087836    47 layer_factory.hpp:77] Creating layer pool1
I0301 05:43:31.087843    47 net.cpp:84] Creating Layer pool1
I0301 05:43:31.087848    47 net.cpp:406] pool1 <- conv1_2
I0301 05:43:31.087857    47 net.cpp:380] pool1 -> pool1
I0301 05:43:31.087923    47 net.cpp:122] Setting up pool1
I0301 05:43:31.087932    47 net.cpp:129] Top shape: 20 64 112 112 (16056320)
I0301 05:43:31.087962    47 net.cpp:137] Memory required for data: 1103872320
I0301 05:43:31.087967    47 layer_factory.hpp:77] Creating layer conv2_1
I0301 05:43:31.087982    47 net.cpp:84] Creating Layer conv2_1
I0301 05:43:31.087987    47 net.cpp:406] conv2_1 <- pool1
I0301 05:43:31.087994    47 net.cpp:380] conv2_1 -> conv2_1
I0301 05:43:31.092363    47 net.cpp:122] Setting up conv2_1
I0301 05:43:31.092384    47 net.cpp:129] Top shape: 20 128 112 112 (32112640)
I0301 05:43:31.092389    47 net.cpp:137] Memory required for data: 1232322880
I0301 05:43:31.092402    47 layer_factory.hpp:77] Creating layer relu2_1
I0301 05:43:31.092414    47 net.cpp:84] Creating Layer relu2_1
I0301 05:43:31.092420    47 net.cpp:406] relu2_1 <- conv2_1
I0301 05:43:31.092427    47 net.cpp:367] relu2_1 -> conv2_1 (in-place)
I0301 05:43:31.093106    47 net.cpp:122] Setting up relu2_1
I0301 05:43:31.093120    47 net.cpp:129] Top shape: 20 128 112 112 (32112640)
I0301 05:43:31.093125    47 net.cpp:137] Memory required for data: 1360773440
I0301 05:43:31.093130    47 layer_factory.hpp:77] Creating layer conv2_2
I0301 05:43:31.093142    47 net.cpp:84] Creating Layer conv2_2
I0301 05:43:31.093147    47 net.cpp:406] conv2_2 <- conv2_1
I0301 05:43:31.093156    47 net.cpp:380] conv2_2 -> conv2_2
I0301 05:43:31.096606    47 net.cpp:122] Setting up conv2_2
I0301 05:43:31.096628    47 net.cpp:129] Top shape: 20 128 112 112 (32112640)
I0301 05:43:31.096633    47 net.cpp:137] Memory required for data: 1489224000
I0301 05:43:31.096645    47 layer_factory.hpp:77] Creating layer relu2_2
I0301 05:43:31.096657    47 net.cpp:84] Creating Layer relu2_2
I0301 05:43:31.096662    47 net.cpp:406] relu2_2 <- conv2_2
I0301 05:43:31.096669    47 net.cpp:367] relu2_2 -> conv2_2 (in-place)
I0301 05:43:31.097775    47 net.cpp:122] Setting up relu2_2
I0301 05:43:31.097793    47 net.cpp:129] Top shape: 20 128 112 112 (32112640)
I0301 05:43:31.097798    47 net.cpp:137] Memory required for data: 1617674560
I0301 05:43:31.097803    47 layer_factory.hpp:77] Creating layer pool2
I0301 05:43:31.097813    47 net.cpp:84] Creating Layer pool2
I0301 05:43:31.097818    47 net.cpp:406] pool2 <- conv2_2
I0301 05:43:31.097828    47 net.cpp:380] pool2 -> pool2
I0301 05:43:31.097905    47 net.cpp:122] Setting up pool2
I0301 05:43:31.097914    47 net.cpp:129] Top shape: 20 128 56 56 (8028160)
I0301 05:43:31.097918    47 net.cpp:137] Memory required for data: 1649787200
I0301 05:43:31.097923    47 layer_factory.hpp:77] Creating layer conv3_1
I0301 05:43:31.097935    47 net.cpp:84] Creating Layer conv3_1
I0301 05:43:31.097941    47 net.cpp:406] conv3_1 <- pool2
I0301 05:43:31.097949    47 net.cpp:380] conv3_1 -> conv3_1
I0301 05:43:31.103961    47 net.cpp:122] Setting up conv3_1
I0301 05:43:31.103988    47 net.cpp:129] Top shape: 20 256 56 56 (16056320)
I0301 05:43:31.103994    47 net.cpp:137] Memory required for data: 1714012480
I0301 05:43:31.104015    47 layer_factory.hpp:77] Creating layer relu3_1
I0301 05:43:31.104027    47 net.cpp:84] Creating Layer relu3_1
I0301 05:43:31.104032    47 net.cpp:406] relu3_1 <- conv3_1
I0301 05:43:31.104039    47 net.cpp:367] relu3_1 -> conv3_1 (in-place)
I0301 05:43:31.104722    47 net.cpp:122] Setting up relu3_1
I0301 05:43:31.104738    47 net.cpp:129] Top shape: 20 256 56 56 (16056320)
I0301 05:43:31.104743    47 net.cpp:137] Memory required for data: 1778237760
I0301 05:43:31.104748    47 layer_factory.hpp:77] Creating layer conv3_2
I0301 05:43:31.104759    47 net.cpp:84] Creating Layer conv3_2
I0301 05:43:31.104763    47 net.cpp:406] conv3_2 <- conv3_1
I0301 05:43:31.104773    47 net.cpp:380] conv3_2 -> conv3_2
I0301 05:43:31.111019    47 net.cpp:122] Setting up conv3_2
I0301 05:43:31.111050    47 net.cpp:129] Top shape: 20 256 56 56 (16056320)
I0301 05:43:31.111055    47 net.cpp:137] Memory required for data: 1842463040
I0301 05:43:31.111068    47 layer_factory.hpp:77] Creating layer relu3_2
I0301 05:43:31.111078    47 net.cpp:84] Creating Layer relu3_2
I0301 05:43:31.111084    47 net.cpp:406] relu3_2 <- conv3_2
I0301 05:43:31.111114    47 net.cpp:367] relu3_2 -> conv3_2 (in-place)
I0301 05:43:31.111802    47 net.cpp:122] Setting up relu3_2
I0301 05:43:31.111824    47 net.cpp:129] Top shape: 20 256 56 56 (16056320)
I0301 05:43:31.111829    47 net.cpp:137] Memory required for data: 1906688320
I0301 05:43:31.111834    47 layer_factory.hpp:77] Creating layer conv3_3
I0301 05:43:31.111848    47 net.cpp:84] Creating Layer conv3_3
I0301 05:43:31.111855    47 net.cpp:406] conv3_3 <- conv3_2
I0301 05:43:31.111862    47 net.cpp:380] conv3_3 -> conv3_3
I0301 05:43:31.117082    47 net.cpp:122] Setting up conv3_3
I0301 05:43:31.117110    47 net.cpp:129] Top shape: 20 256 56 56 (16056320)
I0301 05:43:31.117115    47 net.cpp:137] Memory required for data: 1970913600
I0301 05:43:31.117130    47 layer_factory.hpp:77] Creating layer relu3_3
I0301 05:43:31.117139    47 net.cpp:84] Creating Layer relu3_3
I0301 05:43:31.117144    47 net.cpp:406] relu3_3 <- conv3_3
I0301 05:43:31.117156    47 net.cpp:367] relu3_3 -> conv3_3 (in-place)
I0301 05:43:31.118728    47 net.cpp:122] Setting up relu3_3
I0301 05:43:31.118749    47 net.cpp:129] Top shape: 20 256 56 56 (16056320)
I0301 05:43:31.118753    47 net.cpp:137] Memory required for data: 2035138880
I0301 05:43:31.118759    47 layer_factory.hpp:77] Creating layer pool3
I0301 05:43:31.118768    47 net.cpp:84] Creating Layer pool3
I0301 05:43:31.118773    47 net.cpp:406] pool3 <- conv3_3
I0301 05:43:31.118783    47 net.cpp:380] pool3 -> pool3
I0301 05:43:31.118851    47 net.cpp:122] Setting up pool3
I0301 05:43:31.118858    47 net.cpp:129] Top shape: 20 256 28 28 (4014080)
I0301 05:43:31.118862    47 net.cpp:137] Memory required for data: 2051195200
I0301 05:43:31.118866    47 layer_factory.hpp:77] Creating layer conv4_1
I0301 05:43:31.118880    47 net.cpp:84] Creating Layer conv4_1
I0301 05:43:31.118885    47 net.cpp:406] conv4_1 <- pool3
I0301 05:43:31.118893    47 net.cpp:380] conv4_1 -> conv4_1
I0301 05:43:31.125350    47 net.cpp:122] Setting up conv4_1
I0301 05:43:31.125373    47 net.cpp:129] Top shape: 20 512 28 28 (8028160)
I0301 05:43:31.125378    47 net.cpp:137] Memory required for data: 2083307840
I0301 05:43:31.125388    47 layer_factory.hpp:77] Creating layer relu4_1
I0301 05:43:31.125396    47 net.cpp:84] Creating Layer relu4_1
I0301 05:43:31.125401    47 net.cpp:406] relu4_1 <- conv4_1
I0301 05:43:31.125408    47 net.cpp:367] relu4_1 -> conv4_1 (in-place)
I0301 05:43:31.126077    47 net.cpp:122] Setting up relu4_1
I0301 05:43:31.126093    47 net.cpp:129] Top shape: 20 512 28 28 (8028160)
I0301 05:43:31.126098    47 net.cpp:137] Memory required for data: 2115420480
I0301 05:43:31.126103    47 layer_factory.hpp:77] Creating layer conv4_2
I0301 05:43:31.126113    47 net.cpp:84] Creating Layer conv4_2
I0301 05:43:31.126117    47 net.cpp:406] conv4_2 <- conv4_1
I0301 05:43:31.126128    47 net.cpp:380] conv4_2 -> conv4_2
I0301 05:43:31.134984    47 net.cpp:122] Setting up conv4_2
I0301 05:43:31.135009    47 net.cpp:129] Top shape: 20 512 28 28 (8028160)
I0301 05:43:31.135013    47 net.cpp:137] Memory required for data: 2147533120
I0301 05:43:31.135032    47 layer_factory.hpp:77] Creating layer relu4_2
I0301 05:43:31.135041    47 net.cpp:84] Creating Layer relu4_2
I0301 05:43:31.135047    47 net.cpp:406] relu4_2 <- conv4_2
I0301 05:43:31.135054    47 net.cpp:367] relu4_2 -> conv4_2 (in-place)
I0301 05:43:31.135713    47 net.cpp:122] Setting up relu4_2
I0301 05:43:31.135727    47 net.cpp:129] Top shape: 20 512 28 28 (8028160)
I0301 05:43:31.135731    47 net.cpp:137] Memory required for data: 2179645760
I0301 05:43:31.135736    47 layer_factory.hpp:77] Creating layer conv4_3
I0301 05:43:31.135749    47 net.cpp:84] Creating Layer conv4_3
I0301 05:43:31.135753    47 net.cpp:406] conv4_3 <- conv4_2
I0301 05:43:31.135761    47 net.cpp:380] conv4_3 -> conv4_3
I0301 05:43:31.144337    47 net.cpp:122] Setting up conv4_3
I0301 05:43:31.144368    47 net.cpp:129] Top shape: 20 512 28 28 (8028160)
I0301 05:43:31.144373    47 net.cpp:137] Memory required for data: 2211758400
I0301 05:43:31.144385    47 layer_factory.hpp:77] Creating layer relu4_3
I0301 05:43:31.144419    47 net.cpp:84] Creating Layer relu4_3
I0301 05:43:31.144426    47 net.cpp:406] relu4_3 <- conv4_3
I0301 05:43:31.144438    47 net.cpp:367] relu4_3 -> conv4_3 (in-place)
I0301 05:43:31.145565    47 net.cpp:122] Setting up relu4_3
I0301 05:43:31.145583    47 net.cpp:129] Top shape: 20 512 28 28 (8028160)
I0301 05:43:31.145588    47 net.cpp:137] Memory required for data: 2243871040
I0301 05:43:31.145593    47 layer_factory.hpp:77] Creating layer pool4
I0301 05:43:31.145606    47 net.cpp:84] Creating Layer pool4
I0301 05:43:31.145611    47 net.cpp:406] pool4 <- conv4_3
I0301 05:43:31.145619    47 net.cpp:380] pool4 -> pool4
I0301 05:43:31.145690    47 net.cpp:122] Setting up pool4
I0301 05:43:31.145697    47 net.cpp:129] Top shape: 20 512 14 14 (2007040)
I0301 05:43:31.145701    47 net.cpp:137] Memory required for data: 2251899200
I0301 05:43:31.145706    47 layer_factory.hpp:77] Creating layer conv5_1
I0301 05:43:31.145720    47 net.cpp:84] Creating Layer conv5_1
I0301 05:43:31.145725    47 net.cpp:406] conv5_1 <- pool4
I0301 05:43:31.145731    47 net.cpp:380] conv5_1 -> conv5_1
I0301 05:43:31.154515    47 net.cpp:122] Setting up conv5_1
I0301 05:43:31.154546    47 net.cpp:129] Top shape: 20 512 14 14 (2007040)
I0301 05:43:31.154551    47 net.cpp:137] Memory required for data: 2259927360
I0301 05:43:31.154564    47 layer_factory.hpp:77] Creating layer relu5_1
I0301 05:43:31.154574    47 net.cpp:84] Creating Layer relu5_1
I0301 05:43:31.154580    47 net.cpp:406] relu5_1 <- conv5_1
I0301 05:43:31.154588    47 net.cpp:367] relu5_1 -> conv5_1 (in-place)
I0301 05:43:31.155277    47 net.cpp:122] Setting up relu5_1
I0301 05:43:31.155292    47 net.cpp:129] Top shape: 20 512 14 14 (2007040)
I0301 05:43:31.155297    47 net.cpp:137] Memory required for data: 2267955520
I0301 05:43:31.155302    47 layer_factory.hpp:77] Creating layer conv5_2
I0301 05:43:31.155314    47 net.cpp:84] Creating Layer conv5_2
I0301 05:43:31.155319    47 net.cpp:406] conv5_2 <- conv5_1
I0301 05:43:31.155328    47 net.cpp:380] conv5_2 -> conv5_2
I0301 05:43:31.163925    47 net.cpp:122] Setting up conv5_2
I0301 05:43:31.163949    47 net.cpp:129] Top shape: 20 512 14 14 (2007040)
I0301 05:43:31.163954    47 net.cpp:137] Memory required for data: 2275983680
I0301 05:43:31.163965    47 layer_factory.hpp:77] Creating layer relu5_2
I0301 05:43:31.163975    47 net.cpp:84] Creating Layer relu5_2
I0301 05:43:31.163980    47 net.cpp:406] relu5_2 <- conv5_2
I0301 05:43:31.163990    47 net.cpp:367] relu5_2 -> conv5_2 (in-place)
I0301 05:43:31.164664    47 net.cpp:122] Setting up relu5_2
I0301 05:43:31.164678    47 net.cpp:129] Top shape: 20 512 14 14 (2007040)
I0301 05:43:31.164682    47 net.cpp:137] Memory required for data: 2284011840
I0301 05:43:31.164687    47 layer_factory.hpp:77] Creating layer conv5_3
I0301 05:43:31.164700    47 net.cpp:84] Creating Layer conv5_3
I0301 05:43:31.164705    47 net.cpp:406] conv5_3 <- conv5_2
I0301 05:43:31.164714    47 net.cpp:380] conv5_3 -> conv5_3
I0301 05:43:31.173279    47 net.cpp:122] Setting up conv5_3
I0301 05:43:31.173301    47 net.cpp:129] Top shape: 20 512 14 14 (2007040)
I0301 05:43:31.173306    47 net.cpp:137] Memory required for data: 2292040000
I0301 05:43:31.173316    47 layer_factory.hpp:77] Creating layer relu5_3
I0301 05:43:31.173327    47 net.cpp:84] Creating Layer relu5_3
I0301 05:43:31.173332    47 net.cpp:406] relu5_3 <- conv5_3
I0301 05:43:31.173341    47 net.cpp:367] relu5_3 -> conv5_3 (in-place)
I0301 05:43:31.173998    47 net.cpp:122] Setting up relu5_3
I0301 05:43:31.174013    47 net.cpp:129] Top shape: 20 512 14 14 (2007040)
I0301 05:43:31.174017    47 net.cpp:137] Memory required for data: 2300068160
I0301 05:43:31.174022    47 layer_factory.hpp:77] Creating layer pool5
I0301 05:43:31.174037    47 net.cpp:84] Creating Layer pool5
I0301 05:43:31.174042    47 net.cpp:406] pool5 <- conv5_3
I0301 05:43:31.174051    47 net.cpp:380] pool5 -> pool5
I0301 05:43:31.174131    47 net.cpp:122] Setting up pool5
I0301 05:43:31.174139    47 net.cpp:129] Top shape: 20 512 7 7 (501760)
I0301 05:43:31.174162    47 net.cpp:137] Memory required for data: 2302075200
I0301 05:43:31.174167    47 layer_factory.hpp:77] Creating layer fc6
I0301 05:43:31.174176    47 net.cpp:84] Creating Layer fc6
I0301 05:43:31.174180    47 net.cpp:406] fc6 <- pool5
I0301 05:43:31.174188    47 net.cpp:380] fc6 -> fc6
I0301 05:43:31.524698    47 net.cpp:122] Setting up fc6
I0301 05:43:31.524757    47 net.cpp:129] Top shape: 20 4096 (81920)
I0301 05:43:31.524763    47 net.cpp:137] Memory required for data: 2302402880
I0301 05:43:31.524813    47 layer_factory.hpp:77] Creating layer relu6
I0301 05:43:31.524829    47 net.cpp:84] Creating Layer relu6
I0301 05:43:31.524859    47 net.cpp:406] relu6 <- fc6
I0301 05:43:31.524875    47 net.cpp:367] relu6 -> fc6 (in-place)
I0301 05:43:31.526865    47 net.cpp:122] Setting up relu6
I0301 05:43:31.526883    47 net.cpp:129] Top shape: 20 4096 (81920)
I0301 05:43:31.526888    47 net.cpp:137] Memory required for data: 2302730560
I0301 05:43:31.526893    47 layer_factory.hpp:77] Creating layer drop6
I0301 05:43:31.526906    47 net.cpp:84] Creating Layer drop6
I0301 05:43:31.526911    47 net.cpp:406] drop6 <- fc6
I0301 05:43:31.526918    47 net.cpp:367] drop6 -> fc6 (in-place)
I0301 05:43:31.526968    47 net.cpp:122] Setting up drop6
I0301 05:43:31.526980    47 net.cpp:129] Top shape: 20 4096 (81920)
I0301 05:43:31.526984    47 net.cpp:137] Memory required for data: 2303058240
I0301 05:43:31.526989    47 layer_factory.hpp:77] Creating layer fc7
I0301 05:43:31.527001    47 net.cpp:84] Creating Layer fc7
I0301 05:43:31.527006    47 net.cpp:406] fc7 <- fc6
I0301 05:43:31.527014    47 net.cpp:380] fc7 -> fc7
I0301 05:43:31.576359    47 net.cpp:122] Setting up fc7
I0301 05:43:31.576403    47 net.cpp:129] Top shape: 20 4096 (81920)
I0301 05:43:31.576409    47 net.cpp:137] Memory required for data: 2303385920
I0301 05:43:31.576427    47 layer_factory.hpp:77] Creating layer relu7
I0301 05:43:31.576442    47 net.cpp:84] Creating Layer relu7
I0301 05:43:31.576447    47 net.cpp:406] relu7 <- fc7
I0301 05:43:31.576460    47 net.cpp:367] relu7 -> fc7 (in-place)
I0301 05:43:31.577302    47 net.cpp:122] Setting up relu7
I0301 05:43:31.577318    47 net.cpp:129] Top shape: 20 4096 (81920)
I0301 05:43:31.577322    47 net.cpp:137] Memory required for data: 2303713600
I0301 05:43:31.577328    47 layer_factory.hpp:77] Creating layer drop7
I0301 05:43:31.577337    47 net.cpp:84] Creating Layer drop7
I0301 05:43:31.577342    47 net.cpp:406] drop7 <- fc7
I0301 05:43:31.577350    47 net.cpp:367] drop7 -> fc7 (in-place)
I0301 05:43:31.577396    47 net.cpp:122] Setting up drop7
I0301 05:43:31.577407    47 net.cpp:129] Top shape: 20 4096 (81920)
I0301 05:43:31.577411    47 net.cpp:137] Memory required for data: 2304041280
I0301 05:43:31.577416    47 layer_factory.hpp:77] Creating layer fc8
I0301 05:43:31.577426    47 net.cpp:84] Creating Layer fc8
I0301 05:43:31.577430    47 net.cpp:406] fc8 <- fc7
I0301 05:43:31.577437    47 net.cpp:380] fc8 -> fc8
I0301 05:43:31.588057    47 net.cpp:122] Setting up fc8
I0301 05:43:31.588090    47 net.cpp:129] Top shape: 20 1000 (20000)
I0301 05:43:31.588095    47 net.cpp:137] Memory required for data: 2304121280
I0301 05:43:31.588109    47 layer_factory.hpp:77] Creating layer fc8_fc8_0_split
I0301 05:43:31.588121    47 net.cpp:84] Creating Layer fc8_fc8_0_split
I0301 05:43:31.588127    47 net.cpp:406] fc8_fc8_0_split <- fc8
I0301 05:43:31.588138    47 net.cpp:380] fc8_fc8_0_split -> fc8_fc8_0_split_0
I0301 05:43:31.588158    47 net.cpp:380] fc8_fc8_0_split -> fc8_fc8_0_split_1
I0301 05:43:31.588168    47 net.cpp:380] fc8_fc8_0_split -> fc8_fc8_0_split_2
I0301 05:43:31.588259    47 net.cpp:122] Setting up fc8_fc8_0_split
I0301 05:43:31.588268    47 net.cpp:129] Top shape: 20 1000 (20000)
I0301 05:43:31.588274    47 net.cpp:129] Top shape: 20 1000 (20000)
I0301 05:43:31.588279    47 net.cpp:129] Top shape: 20 1000 (20000)
I0301 05:43:31.588284    47 net.cpp:137] Memory required for data: 2304361280
I0301 05:43:31.588287    47 layer_factory.hpp:77] Creating layer loss
I0301 05:43:31.588320    47 net.cpp:84] Creating Layer loss
I0301 05:43:31.588325    47 net.cpp:406] loss <- fc8_fc8_0_split_0
I0301 05:43:31.588341    47 net.cpp:406] loss <- label_data_1_split_0
I0301 05:43:31.588352    47 net.cpp:380] loss -> loss/loss
…
